bsc_neural_networks/assignment_2/perceptron/models/weights.npy (npy, 62848 bytes, 1 tensors)

array f8 [784, 10]
000000 c5 ad 4f d3 5c 60 78 3f 71 45 fe 5b f2 b6 86 3f
       0.005951273536065786 0.011091130669032197
000010 e0 2d f7 35 52 73 7b bf 6b 70 5c 41 3d 6d 83 3f
       -0.0067017756804932105 0.009485701138651067
000020 95 46 86 2d 35 05 97 3f 90 fd ee 70 e0 1d 88 3f
       0.022480803397746902 0.011775735327204356
000030 77 0b 56 f9 63 2d 76 bf 2f 3b 81 60 31 1f 94 3f
       -0.005414381526295801 0.01965024138945209
000040 3d 15 41 64 47 61 74 bf ec d1 45 f1 b4 4e 67 3f
       -0.004975584863193658 0.0028451475174568943
000050 7a 7e 80 8e 97 a3 45 bf 54 bf 38 1f 3f e9 70 3f
       -0.0006603708288856612 0.004128691263346546
000060 4a 69 3f 93 57 a1 81 3f 6a 04 f4 30 1e c2 81 bf
       0.00860851686586685 -0.008671031826908943
000070 7c ee 37 15 83 db 3c bf f3 81 53 16 db ec 72 3f
       -0.00044033003106822683 0.0046204145521362315
000080 3b 7e c1 b4 77 80 5d bf da 2a ea 25 55 94 43 3f
       -0.0018006485943472667 0.0005975166094044041
000090 b5 26 e6 15 32 64 7c 3f d7 c2 cf db b0 9b 94 bf
       0.006931491514828349 -0.020125163475259136
0000a0 c4 97 bf d8 29 64 82 bf 36 ac 14 13 45 fe 53 3f
       -0.008980109145294686 0.0012202906185148194
0000b0 6c 54 ae 07 11 44 69 bf 49 11 fe 07 bf 17 0e 3f
       -0.003084214460111803 5.739738207835799e-05
0000c0 71 3c c5 d7 11 0d 73 bf e6 1b 93 8f c9 45 80 bf
       -0.004651136110921703 -0.007945608800936154
0000d0 97 4a 09 87 ea 74 73 3f bb 10 7c 8c 41 56 75 bf
       0.004750171778669674 -0.005209213304400768
0000e0 31 01 19 66 04 6c 7d 3f 6c f8 e1 b4 55 91 62 3f
       0.007183091338049772 0.0022665666538719733
0000f0 05 cd 24 74 88 9a 4f 3f ed f7 04 48 14 1f 7c bf
       0.0009644666936651508 -0.006865576957634884
000100 67 84 d7 6d e3 d8 86 bf 0c 54 cf b9 da c9 90 3f
       -0.01115586928330199 0.016395013419089152
000110 61 2b ac b3 c1 88 73 3f 8d ff ea c9 42 32 86 3f
       0.004769093177638379 0.010838052546546151
000120 1e 01 31 b9 a7 91 26 bf 8c 5b ef 44 9f 16 7c 3f
       -0.00017218754200777007 0.006857511659254533
000130 25 52 39 0d 15 f9 89 3f 1e c0 15 ea e1 47 55 bf
       0.012682117906629273 -0.0012988763995416329
000140 dc 97 5e 7e ae 4e 90 bf a8 50 4a cc bd da 9a 3f
       -0.01592514654443976 0.026225057214632003
000150 e8 df 3c 3d 95 58 92 bf 6c c9 21 e6 29 d3 86 3f
       -0.017916042196901488 0.011144950233050031
000160 98 0d 39 7f 4c 65 7a bf 21 17 5b 3b b6 47 59 bf
       -0.006444262329356042 -0.0015429763420100123
000170 27 cb 29 a0 6c ea 89 3f 12 fa bc c2 d0 8f 75 bf
       0.012654160154146844 -0.005264106246441818
000180 0a 6f ba 62 26 da 52 bf b4 1c d5 d5 3e b3 43 3f
       -0.001150643812173282 0.0006012017071633986
000190 0e 8c ef 1e f4 b6 54 3f c2 e6 c5 22 e7 cf 82 bf
       0.0012643226616482236 -0.009185605763139097
0001a0 43 24 9f 30 cb cb 66 3f a5 da be 4e fc 5a 2e 3f
       0.0027827232888495714 0.00023159341742281129
0001b0 76 42 b0 42 fb f6 7d 3f a2 bb b5 bb 3d c0 70 3f
       0.0073156180251464555 0.0040895854429966755
0001c0 ee f4 04 e5 94 69 90 3f c9 1e 55 88 52 f4 87 bf
       0.0160277619154287 -0.011696476731813192
0001d0 6c 97 5a ff 33 09 6b bf ac 01 42 3e b9 40 97 bf
       -0.0033002868247703956 -0.022707838463703986
0001e0 91 b4 0f 97 36 f9 7c bf b2 03 94 ae 94 ad 7f 3f
       -0.007073605768693218 0.00773389891514935
0001f0 b7 22 d9 75 b5 76 80 bf bb da 2e 05 93 35 8d bf
       -0.008038919123593542 -0.014262341113732693
000200 aa 09 19 15 ef d0 65 bf 46 9e 5f 9b 4e fb 80 bf
       -0.0026631040171036418 -0.008291830174086755
000210 94 bf c7 20 50 f1 60 bf 7b 7a ce 04 a9 e4 3b 3f
       -0.002068192005246725 0.00042561651644660415
000220 8e 72 4f 8a e3 59 75 3f 3d 7a ea 9a 1a f7 91 bf
       0.005212677792738275 -0.017544189172094205
000230 70 8c 71 6d 44 6c 7a 3f ba 8a 1b 3f a9 df 6a 3f
       0.00645090798852542 0.0032804780574776345
000240 cc 0d 94 c2 1a f4 64 3f 38 7b 69 56 87 b8 86 bf
       0.0025578043611191644 -0.011094147991739342
000250 d1 3e 17 f8 0b 0e 7b bf 75 e5 8a 57 44 2f 88 bf
       -0.006605192903819294 -0.011808904573046711
000260 df f7 7e b6 5d 48 30 3f e7 aa 6a c8 11 2e 8d bf
       0.0002484539786528055 -0.014248026779872315
000270 d6 6d 96 dd c5 1b 7d bf 01 26 a6 55 c8 d5 8b bf
       -0.0071065644382559325 -0.013591351617622928
000280 5c 58 17 dc 04 5a 88 bf 93 ac fe 24 ea 00 80 3f
       -0.01189044758477225 0.007814244512550672
000290 ed c9 44 44 66 9e 68 bf 8c 83 52 e4 a3 91 82 bf
       -0.0030052182575215276 -0.009066849141449194
0002a0 38 b5 cf 74 66 85 88 bf 8f 91 95 1a 93 22 50 3f
       -0.011973190727042934 0.000984805732820868
0002b0 b6 ae 94 8e d0 5a 79 bf 5b b3 c6 6e c4 49 9c bf
       -0.006190123248682225 -0.027625149976006607
0002c0 6f b3 5e b1 3c 23 84 3f cd 4f 35 8b f3 d2 75 bf
       0.009832834399128491 -0.005328132002734476
0002d0 a3 90 b7 69 7b 2f 80 bf 33 ff ee d9 1e 0c 82 bf
       -0.00790306488392673 -0.008812180543713665
0002e0 8e 94 5d de 48 a4 6e 3f 88 ec 9a 50 dc 37 6c 3f
       0.0037404463973183593 0.0034446051621138153
0002f0 3c c6 52 23 0a f7 70 bf 8f df af 4d cf fe 76 bf
       -0.004141845323077539 -0.00561409929195368
000300 00 37 78 cb f1 d2 68 bf 04 b3 9a 27 c7 68 95 bf
       -0.003030273681139728 -0.020907508651975895
000310 a1 57 db 9a c0 35 7a bf 30 42 ad 46 b9 65 89 bf
       -0.006398918497969947 -0.012401053876289841
000320 85 2b 39 35 b0 6f 7b 3f 2e 48 93 cf 8d b2 88 3f
       0.006698311149714868 0.012059314629741715
000330 49 01 cc 72 8e a8 86 3f ed b7 21 81 3c ae 7f bf
       0.011063683393786621 -0.007734524102586332
000340 09 1f 1d e4 9c ff 82 3f cd 72 d7 00 0d 93 8b bf
       0.009276605330924352 -0.01346407088106485
000350 35 75 3a 44 0e ab 7e 3f 56 1f f0 95 c2 86 80 bf
       0.007487350205022826 -0.008069534493202173
000360 20 5f 4a 81 e9 6d 80 3f 2a 0f a9 7e 3c 63 85 bf
       0.008022140749104845 -0.0104431844857867
000370 04 db a6 95 27 7b 7c bf 68 3a 8b 9e 22 c5 69 3f
       -0.0069533869049596166 0.0031457592161594945
000380 4e 11 43 f3 9f 03 91 3f ef 6e cb c1 2c b7 73 3f
       0.016615390036137705 0.004813361007758961
000390 bb df 73 68 73 a4 60 bf 3e 6d 8c cc e4 4c 9e 3f
       -0.0020315412581304016 0.029590201363231865
0003a0 e4 aa a5 10 4d 47 65 3f 5b 65 1c 91 bc 80 70 bf
       0.002597475545532789 -0.00402902277871794
0003b0 5f 61 54 00 90 0c 87 bf 73 ca 86 e9 6c 49 9b 3f
       -0.011254429826792643 0.026647283318832437
0003c0 37 a0 34 07 7d 04 67 bf 14 7e 71 13 78 72 81 bf
       -0.002809757419203886 -0.008519113629687637
0003d0 69 ee e5 44 e4 cf 68 3f 47 f9 66 05 57 5c 63 bf
       0.0030288179761422296 -0.0023633670454891484
0003e0 a5 82 08 de 01 96 8d bf a0 55 de 8f f1 24 8d bf
       -0.014446272457520346 -0.014230620577829367
0003f0 5d 58 94 d6 8f 43 6c 3f 35 bd b7 f2 8b b6 7b 3f
       0.003450184759127102 0.006765886947945267
000400 c7 99 b1 f1 4c eb 80 bf 2a e8 43 0f 88 da 35 3f
       -0.008261300207050305 0.00033346006172474635
000410 82 ec 2a f2 d1 67 5f 3f db 18 48 ec 72 96 99 bf
       0.0019168424848164116 -0.024987979575620805
000420 99 43 1f e4 8a 88 08 bf 3d 0b 70 46 cf 7b 91 3f
       -4.67936884117677e-05 0.0170738589040511
000430 e0 6b 4d 5d 13 bc 89 bf 7a 54 8e f0 95 55 83 bf
       -0.012565757069458117 -0.00944058552139836
000440 b2 a7 1d 33 77 14 9a 3f ff 4f 01 29 4f f5 83 bf
       0.025468695158828054 -0.00974523395431248
000450 9d bb 46 de 62 09 7b bf 3d 28 83 71 f6 49 87 bf
       -0.006600748256842784 -0.011371541346665843
000460 c7 3e ed 67 8c cb 93 bf 6e c7 85 c7 1e 17 43 3f
       -0.019331163256821406 0.0005825901308027356
000470 14 89 2e 90 2d 07 91 3f 75 58 3e 3d 16 3c 84 bf
       0.01662894432559721 -0.009880231613163407
000480 74 30 a4 c9 1f c3 96 bf f5 e8 b8 f4 de 3d 80 bf
       -0.022228714639866046 -0.007930509417850543
000490 cb 6b 91 2b e0 ca 7d 3f 23 4c 8e a2 9b 7e 4c 3f
       0.007273555435939503 0.0008695850311702984
0004a0 c5 5f 26 f4 0d 7a 87 bf 65 ed fa f8 a5 55 7b bf
       -0.011463269246448147 -0.006673477487932321
0004b0 e4 4b 4e be f1 d0 3d bf d4 e8 5b 8c 9e db 63 3f
       -0.00045495893419306003 0.0024240585943263535
0004c0 13 23 29 91 1b ed 75 3f c9 07 f9 51 f0 6d 56 3f
       0.005353076633192416 0.0013689848782551964
0004d0 cb f1 48 bd eb e7 6b bf 1b 44 a4 15 bc 2f 95 3f
       -0.0034064869198841877 0.02068990594949947
0004e0 08 3d b9 a2 d5 24 62 3f 5a db 9e 7a f9 0f 5f bf
       0.0022148296900820243 -0.0018958984678485087
0004f0 ad 78 70 bd 8f cf 4c bf 4f 69 24 ad c3 be 79 bf
       -0.0008792354445892513 -0.006285442696276468
000500 a6 37 4a 10 cf e8 92 bf 5b 65 e8 00 a4 8c 6c bf
       -0.01846622025418978 -0.0034850314325580007
000510 7a fb fd 76 18 e4 94 3f 7f d2 12 0d 23 d0 8f 3f
       0.020401365530684036 0.01553370841643553
000520 4a e8 06 36 61 02 70 bf 0e fb d7 29 7e 4c 68 bf
       -0.003908519487987825 -0.002966162121765043
000530 24 4d aa 74 db 73 72 3f 64 da be 75 67 04 80 bf
       0.004505021332664758 -0.00782090023117838
000540 8e 65 f3 fa a4 a4 83 3f f5 46 93 42 ae 05 88 bf
       0.00959137812462776 -0.011729585081784214
000550 2a 72 0b 58 17 75 6b 3f d9 71 79 97 f8 c7 7e bf
       0.0033517318664577815 -0.007514926015201395
000560 25 b8 35 bb 31 31 7a 3f ce 13 ae be f1 17 64 bf
       0.006394571554990268 -0.0024528237894991594
000570 20 73 75 e9 ad 59 38 bf ca c9 a0 07 ec 9e 7b bf
       -0.0003715562429158926 -0.006743356696505784
000580 70 e7 7d 56 77 d1 7a 3f 9f 21 c7 da 29 39 71 3f
       0.00654741875029595 0.004204905981574219
000590 1b 48 f5 6b c5 ae 86 bf de d6 bb 25 26 77 82 3f
       -0.011075537068482124 0.009016321207563956
0005a0 57 83 17 11 16 86 82 bf 91 f8 50 31 e5 43 7a 3f
       -0.009044811627008249 0.006412406238324079
0005b0 53 24 1b a1 b9 98 73 3f f7 0e 8e ac 6e 24 35 bf
       0.004784321894200155 -0.0003226061058329977
0005c0 d1 b7 0c 8d f3 a5 8c bf 12 cb 63 a7 90 06 8e bf
       -0.013988402120585082 -0.014660959347087697
0005d0 81 6f 79 f6 5e d6 75 bf fb ed 13 42 32 9b 89 bf
       -0.005331393192672952 -0.012503044740234328
0005e0 5e cf e5 5a 64 77 7f bf 73 1b 19 97 e7 63 78 bf
       -0.007682220470417748 -0.005954651498149543
0005f0 65 dd ec ed a6 d3 83 3f 12 97 56 76 cd f3 8f bf
       0.009681038032438758 -0.015601735280891958
000600 d3 7c 9c 52 34 f4 67 3f 7c 3b e6 ce 4a 42 81 3f
       0.002924062912725492 0.00842722362429326
000610 38 1d d9 05 ce b9 70 bf c4 50 90 17 5c bc 68 bf
       -0.004083447243437725 -0.003019504420544635
000620 b1 bc 43 70 b5 2e 91 bf 44 c7 6b da ba f7 55 bf
       -0.016779742219054487 -0.0013408016908979673
000630 44 62 d9 4a 12 e7 87 3f 3c d6 34 d4 b2 17 79 3f
       0.011671202573027568 0.006126116323959926
000640 55 f6 4a b8 38 bc 60 3f 77 90 ae 82 d3 a1 75 3f
       0.0020428760347773003 0.005281282627866194
000650 85 5f b3 f1 68 2a 92 bf 6e 3a 8c 56 fc 50 80 bf
       -0.017739906074751417 -0.00796696795580695
000660 07 ce d7 1b db 31 8e 3f 83 4d 6d bd 01 ec 47 3f
       0.014743530070496126 0.0007300384994359119
000670 2c 7a eb 99 e2 70 87 3f bc e2 1f 2e 52 d7 66 bf
       0.011445780107746627 -0.0027882199365162046
000680 27 f2 f2 08 ba 3a 55 bf 64 94 a4 df 6c 20 7a bf
       -0.0012957398173930686 -0.0063785794139096
000690 0d 04 a7 da 6a ba 87 3f 21 ae 41 49 1a 1c 51 bf
       0.01158603172086894 -0.0010442978573576083
0006a0 c1 45 a5 0f aa a5 64 bf 94 92 17 cd 62 28 92 3f
       -0.0025204011446155754 0.017732185142352266
0006b0 7e 78 9a bc 67 5b 96 3f ec 3a 19 8a 96 6f 56 bf
       0.021833058248937658 -0.0013693781005660833
0006c0 09 3a cd 6b 4e 83 66 3f 9a 94 ab 0b bd c1 61 3f
       0.0027481586134066077 0.002167577008878552
0006d0 75 8c 3a 0c 14 31 85 3f 6a 0a 3c 2d b5 93 99 3f
       0.010347515700521928 0.024977522741219373
0006e0 64 7a f2 96 63 1a 37 bf a7 16 10 2f 7f c7 98 3f
       -0.0003525250567210424 0.024198519942749155
0006f0 b3 55 a7 4b 52 9e 7d bf 31 28 f5 65 b2 e7 54 3f
       -0.0072310652417021835 0.0012759439631104925
000700 0d f6 bf 24 96 ed 51 bf 9a e3 00 d6 45 78 58 3f
       -0.0010942426915784315 0.0014935190192899351
000710 f3 61 ba 73 52 98 62 bf f1 f4 aa e2 4a 4e 54 bf
       -0.00226989845198155 -0.001239369516653096
000720 ef 86 63 af 03 df 41 3f 3a fe 37 6d b9 30 63 3f
       0.0005453842157090142 0.0023425695051171565
000730 eb 05 12 74 88 ca 72 bf 57 37 86 93 51 61 83 bf
       -0.004587681790441315 -0.009462964357932853
000740 17 0f ca b3 79 b0 92 bf 0e 96 af 78 bb e6 42 3f
       -0.018251325224368644 0.0005768218410337493
000750 3c b7 39 59 dd 1f 83 3f cd c8 fc 77 fe 5e 2d bf
       0.00933812073273154 -0.00022408348376640742
000760 53 80 73 13 e5 2b 28 bf e7 0a bb 12 12 be 95 3f
       -0.0001844136365667404 0.021232874291636696
000770 73 25 e1 c3 d6 5e 8c 3f 3f ef 41 8d c4 72 93 bf
       0.013852765896575225 -0.018992491838147215
000780 1e 6e 5b 9f 85 16 82 bf 7c 6b 13 46 3b 97 69 bf
       -0.008832019735044713 -0.003123870629321455
000790 27 19 b1 fe 4c 4f 6c bf bf 56 3f 4a 77 cb 3d 3f
       -0.0034557822996560575 0.00045463240007613184
0007a0 ff 7f 2b 92 a3 26 9d bf cc d8 4f 34 d3 86 80 3f
       -0.028467708393577592 0.008069658311779547
0007b0 f2 44 9e 9b 6a cd 75 3f 8d 68 06 7e ff 3a 86 bf
       0.005322853505178348 -0.010854717286566529
0007c0 50 02 fd c1 a9 2c 69 3f 46 1c fe b8 cf 87 92 bf
       0.0030730548459419263 -0.018096204439214135
0007d0 8d c1 9d 66 c9 42 43 3f f7 01 bb 86 87 c2 7c 3f
       0.0005877955820619438 0.007021455192159901
0007e0 52 4e 5a 7d f7 c3 77 bf aa d4 b4 83 71 a6 83 3f
       -0.005802122837525641 0.00959480937181419
0007f0 e4 5d e4 91 e9 d0 4d 3f ff 29 b3 aa c8 d5 87 3f
       0.0009099140623076121 0.011638229092928219
