bsc_neural_networks/assignment_3/multi_layer_perceptron/model_parameters.npz (npz, 637098 bytes, 4 tensors)

weights_0 f8 [784, 100]
0	0x3fa16db09d9cd5c4	0.03403999256117232
1	0xbfa19965adbe1e68	-0.03437345262414909
2	0xbfa665ad7a15099c	-0.04374448886166535
3	0xbfa73dadf3978f9b	-0.04539245222602447
4	0xbf8bbb4a4a463f60	-0.013540821448969786
5	0x3f9213c534a3d811	0.017653542840854245
6	0xbf6032830389e840	-0.0019772108901721375
7	0xbfafc1c03a4de23f	-0.06202507697793579
8	0xbfb2e07c3596fe7d	-0.07373787220330459
9	0x3f4e2930baab53aa	0.0009204376159127521
10	0xbf631d6e616adec6	-0.0023333698148596286
11	0xbfaba3716d67967d	-0.05398134670739994
12	0x3fa0930f62a022c7	0.03237197951245246
13	0xbf99eab0a449e9b1	-0.025309333827388595
14	0x3fb1f5137f07002e	0.07014581538442208
15	0xbf9047adeb0b1bfd	-0.015898435088072194
16	0x3fa2ce30f9c7f4ad	0.0367293648632566
17	0x3f97c7a37034e5cc	0.023222497676419526
18	0x3fa0e11a592d2756	0.03296739901141048
19	0xbfa40f63c3775a72	-0.039179914103148486
20	0xbf7d811ff759f754	-0.007203221195252702
21	0x3fa2ea02c53a390f	0.03694161088525238
22	0x3fbb86e567eb0bf1	0.10752710139335854
23	0x3f87a7077322c631	0.011549051476637736
24	0xbf9b44e7704474ec	-0.02663003561712156
25	0x3fafc11f51376efe	0.0620202814713746
26	0x3f93fc120ed696bf	0.019516260295538098
27	0xbfb6a77496e6047d	-0.08849266704602772
28	0xbf37c6fc6331946e	-0.00036281263164134644
29	0xbfb937575da88f09	-0.09850069080908609
30	0x3fa4f4ce562874c0	0.040930221574151826
31	0x3f91cb8809f03f2a	0.01737797318133897
32	0xbf8b21d8bf06a3c0	-0.013248151139878206
33	0xbf9e573d8145818d	-0.029629670157534305
34	0xbf70957f980d1975	-0.004048822797648168
35	0xbfa50c466ba960ac	-0.0411092764304056
36	0x3fa788f50310ef07	0.045966774582181506
37	0x3f7fe1bdf5cb1bdb	0.007783643752822446
38	0x3fa66003c41af84b	0.04370128411163473
39	0x3f7fd3efe3b93fd1	0.0077704783139580106
40	0x3f95284a4360dc69	0.020661506998490262
41	0x3f928de38b668da6	0.01811938799222692
42	0xbfb1d685bcfebec8	-0.06967960228098058
43	0xbfa8153c3fb1ff9c	-0.04703701283960912
44	0x3fa3e592f233905f	0.038860885682681305
45	0x3f6aca0f8ccca810	0.003270178195085023
46	0x3f987b6c67742b43	0.023908323110883655
47	0xbfb25e52eed01ad8	-0.07175176935571004
48	0x3fb01c7707fbf1af	0.06293434090543458
49	0x3fab704556e67e45	0.05359093366427862
50	0xbf917c00a129a904	-0.017074594341843344
51	0x3f7f3f94a4a6315d	0.007628994595858832
52	0x3f96c2a23defdc9a	0.02222684386285021
53	0x3fbe526b50893e79	0.11844511715139018
54	0x3f9d5b0c5ad0004a	0.028667634051089665
55	0xbfb35c995525a21e	-0.0756316979292326
56	0xbf9e761c0036e934	-0.029747426522342482
57	0xbf99f5eab71dc32f	-0.025352160860566627
58	0xbfc096ab5a8e06e1	-0.12959806367512441
59	0xbf9b05c980a7a4e5	-0.026389263608426545
60	0xbfa399ee5544ef8d	-0.038283775242660224
61	0xbf9e6c111dc554f5	-0.029709117357318033
62	0x3faa5e668f013aa8	0.05150146957077101
63	0x3f73a3ad4a4e6a5d	0.004794766345094984
64	0xbfaa7beb56f7bbe1	-0.05172667919747887
65	0x3f9f25858d48d720	0.03041657137710907
66	0x3f9e6529e17aa45d	0.02968278349604635
67	0xbf8edef83df7117c	-0.015073718443894484
68	0xbf97dd3e532b8dc3	-0.023304914308835977
69	0xbfa6cafa12f808e3	-0.044517340484178346
70	0x3fa35fe06cf63de3	0.03784085588551613
71	0x3fa12bb0efc66ac3	0.03353646208707552
72	0xbf6cc6a4c208a086	-0.003512689392909665
73	0xbf8c6075df0c5b38	-0.013855858678238783
74	0xbf841a3ea5f70871	-0.009815682830666557
75	0x3f902568538e541b	0.015767698383189904
76	0x3fabeb66333e5a23	0.05453032851726316
77	0x3fae8d7731bd8fd3	0.05967304689582389
78	0xbfb1b492d0b44061	-0.06916158290209885
79	0xbfa4e72005788bb5	-0.04082584444792962
80	0xbfa29bbbaa17c3ff	-0.03634439898804231
81	0xbfb4ee87aee8e6c8	-0.08176467914827434
82	0xbfa86a7af20043f0	-0.04768737987627236
83	0xbfa78aebefc0b95d	-0.04598176290197629
84	0x3f93ef4c69ecd793	0.01946753880039116
85	0x3fbfa58aa4f7988d	0.12361971404570422
86	0x3fb61697823146c1	0.08628222397353637
87	0x3fafaae45ead55aa	0.06185067802168061
88	0x3fa70e2bb758bb93	0.04502998936765503
89	0x3f800415ec06977d	0.007820292725977169
90	0x3fac945b8d7c6738	0.05581937887309468
91	0xbfa83a91bd35dcc1	-0.04732184824654829
92	0x3fa24a55c09748d6	0.03572338081325348
93	0xbf86afa024570fcb	-0.01107716666127336
94	0xbf915988b9e9b2d5	-0.01694310793611716
95	0x3fb123c93c056598	0.06695230212553438
96	0x3f907247ecd15279	0.016060947255328337
97	0x3fb89035b908acfc	0.0959504677527327
98	0x3f9211f5a1ca4ce9	0.017646635055439317
99	0x3fbb843094653c25	0.10748580573020712
100	0xbfb2f28171135b4c	-0.07401284227976851
101	0x3fbba1c5048347ab	0.10793715820480425
102	0xbf9a1c9f63c54040	-0.025499811615475432
103	0x3f93a64491cbdbb9	0.019188949011517773
104	0x3f9305b09402c67d	0.018576392206063098
105	0x3f749aa8c19ba330	0.005030307010863308
106	0xbfa4fcd99248a9d0	-0.040991591555513573
107	0x3fa5b2d35e22f5b8	0.04237995647552445
108	0x3fb02f8a4e012983	0.06322540668876368
109	0x3f9c6cdd9e436e1b	0.027759039673453594
110	0xbfaa3cbf406014de	-0.05124471340972446
111	0xbf52ad10c5888083	-0.0011398948464673992
112	0x3f8048bf52905d69	0.007951254565382997
113	0xbf91e375c957a61e	-0.01746925393482545
114	0xbf966457de130835	-0.021867154054014477
115	0xbf7337b4effd86df	-0.004691798006975139
116	0xbfa6dfbe9c9d48c9	-0.044675785654037244
117	0xbf85aa7d9fa00800	-0.01057909148585523
118	0xbfaafd06b6bf7a0c	-0.05271168690500269
119	0xbfbc9d9c4f4b3713	-0.11177994666942608
120	0xbfb44731177e1b00	-0.07921130012082855
121	0xbf981cb8b59b3702	-0.02354706390797557
122	0x3faa66e9f5271896	0.0515664207228365
123	0xbfb25e8235c8df96	-0.07175458729841319
124	0xbf8c558358a8bf60	-0.013834978240168716
125	0x3fa2c484423ee61b	0.0366555529466945
126	0xbfae74590c0b2c8e	-0.05948141357438273
127	0xbf9abf9c164c4ca6	-0.026121558056797632
128	0x3f9c2dcf9a50d1d1	0.02751850489967628
129	0xbf89c45d8303a711	-0.012581568299043807
130	0xbfaa7ee1afaa2531	-0.051749279683529166
131	0xbf86b2daf51e8973	-0.011083326917120861
132	0x3fb77019f1f77924	0.09155428082838007
133	0x3f975a6ec2ac5e5d	0.022805910713115874
134	0x3faac4b0f614e565	0.05228188518453684
135	0xbf8ccc2e080174f1	-0.014061317080797471
136	0x3f90ef40608ca68a	0.01653767194071646
137	0xbf7a3f0f18b14518	-0.006407793970610663
138	0xbf8cde95b1262799	-0.014096421688708992
139	0x3fa69167f42c5c9a	0.044078110271749085
140	0x3f84e94cf7933807	0.010210610680953648
141	0xbfb5c2583de4ddab	-0.08499671469768681
142	0xbf8912efd01cea66	-0.01224315027103735
143	0x3f9645e67fe5977e	0.02175102382297877
144	0x3f9410cfb39c1808	0.019595380151280067
145	0xbfab8be52ee30f50	-0.053801691030030185
146	0xbf7fd5458f049e0b	-0.007771751130611469
147	0xbfc025b17f9a1291	-0.12615030985411527
148	0xbfb4bd61da3dfcfb	-0.08101474359681397
149	0xbf8050e1d3269ac4	-0.007966770416556364
150	0xbfa1c629018bd14a	-0.03471496719240237
151	0x3fa9016dcc489101	0.04883902662939655
152	0xbfaac59a946cbc14	-0.05228884755921839
153	0xbf97a5aa3e5f18b7	-0.023092899376728506
154	0xbfabbe0265472411	-0.05418403135588091
155	0x3fa041f4ef5fd5e9	0.03175321027803674
156	0xbfa19e77abddb5f0	-0.03441213582014402
157	0x3f9fb6ebb9c2fe84	0.03097122498797812
158	0x3f7d5cce95b58b0c	0.007168585750465761
159	0xbfb75278fae3667c	-0.09110218167497836
160	0x3fb9331536e799aa	0.09843571272322174
161	0xbfa99dc19d5c59b7	-0.050031710108828724
162	0xbf9a1f39c7df4b43	-0.02550974161551812
163	0xbfa6215b0069b6f1	-0.04322323207894197
164	0xbf7a8edd33758e35	-0.0064839020409155805
165	0xbfb57216a63349a3	-0.08377210195184275
166	0xbf8b95c2e3fc4a2c	-0.013469240744176401
167	0xbf78e38bbfd153f6	-0.006076379676490431
168	0xbfa30c036853738b	-0.03720102928648491
169	0xbf9ca325b7aac5e1	-0.02796610768809227
170	0x3fb4d65ca22949b2	0.08139590224280971
171	0x3fa91d464737329b	0.049051471894562236
172	0xbfa9630eee07e69e	-0.04958388000154666
173	0x3f95999f2689d813	0.021093832709503667
174	0x3fb0e1ef557e4566	0.06594749295461141
175	0x3f8fc71e9aa9b350	0.015516509146630192
176	0x3f91ee846559f6d2	0.017511433301925568
177	0x3f812e6b44039f63	0.00838931847870556
178	0x3faade75487ba5a6	0.05247847089578821
179	0x3fb2238d9e5ec4af	0.07085499874553379
180	0xbf9cf5bf038fd4d5	-0.0282811971591926
181	0x3f9aa4fd501c1753	0.026020010008344596
182	0x3fae3f84ed85fc9a	0.05907836341338531
183	0x3f82898050db96a4	0.00905132529028247
184	0xbfa9a4c7338a0829	-0.050085282365231194
185	0xbfabd762f34bafc1	-0.0543776437751542
186	0x3fa2a4c7dec13e86	0.0364134272973589
187	0xbfa300378d8bc429	-0.03711103060585003
188	0x3fb54252089545fd	0.08304321965740509
189	0xbf7e0af80be4b1d8	-0.007334679538228937
190	0x3f44ee3bc9f32e0b	0.000638751214773804
191	0x3fbfa72ea93b8efb	0.1236447489896441
192	0x3f90fb53c8e50b8b	0.01658373750366197
193	0x3fa109b89daa6f19	0.03327729153281051
194	0xbfa726a51683f70d	-0.0452167119965293
195	0xbfc3617eecda93ee	-0.151412835742263
196	0x3f9684cc68b08e74	0.02199096096968707
197	0x3f9a12299f6dc1b5	0.02545990977836406
198	0x3f6849d5fa87bbcf	0.0029648951788127996
199	0xbfb1d1aca250beec	-0.069605626704966
200	0x3f89a8cc462ef4fd	0.012528987781360796
201	0xbf82153830df5ff3	-0.008829535476181127
202	0xbfa42adc573775dc	-0.039389501234591257
203	0x3fadd0d2dbaf86c4	0.058233823124977074
204	0x3fa0ba82b6df6cea	0.0326729629739136
205	0xbf981bb5997d5227	-0.023543202870614757
206	0x3fabf7767660a8f5	0.05462236590422435
207	0x3f96aa4c7b810068	0.02213401321228084
208	0x3f9ddd5056d34aef	0.02916455774249987
209	0xbf8a59fc0d702462	-0.012866944465729616
210	0x3faa613d8dd62503	0.051523135723138956
211	0x3fa61c44b4de71d3	0.043184420660711396
212	0xbf951ce81ed7b5fb	-0.02061808288811127
213	0xbf859da6c161965d	-0.010554602409864328
214	0x3f87b9905a5a2a19	0.011584403760271521
215	0xbf820cd68c6077a8	-0.00881354919334483
216	0xbf4a306051d84551	-0.000799223929506857
217	0xbfa52030990b500f	-0.04126121395316328
218	0xbf721bd162acb0db	-0.0044210604781193775
219	0x3fa4fb7e5d769152	0.04098124400050786
220	0x3f932f92cc2408e8	0.018736165723574866
221	0xbfadd619a4099b54	-0.058274079584228616
222	0xbfb325391ef1ce31	-0.07478672986490477
223	0x3f8d386437e94213	0.014267714458726244
224	0x3fac364569ed9097	0.05510155599657301
225	0x3fb75238e8bc7621	0.09109836275134643
226	0x3fa548ac54acfc1a	0.041570077263252084
227	0x3f942c29455c0ec8	0.019699711664556557
228	0x3fb15563176ff265	0.06770915338706514
229	0x3fb175081bd5dd36	0.06819201163840635
230	0x3fc2cde46ca23f16	0.14690833382018614
231	0x3fa9a8914c7f3b41	0.050114193523418844
232	0xbfa66a80ce029323	-0.04378130450030528
233	0x3fb0263a8d67faf7	0.06308332397746229
234	0x3fa649e655cd0f92	0.04353256032348364
235	0xbf917bddc2732f6b	-0.01707407473877202
236	0x3f91ac865336aeca	0.017259692028956754
237	0x3f9c7bac297cc750	0.027815523178282675
238	0x3fb0665e29fb2988	0.064062009095471
239	0x3f7261024c221e1f	0.004487046217156925
240	0xbf6d250ebbbe6a93	-0.0035577094804016356
241	0xbfa820204aa8122f	-0.04712010299048008
242	0x3fa2e17f9698f268	0.03687666619632496
243	0xbfbf103bfc17c03b	-0.12134146599396527
244	0x3f770a1b86e32f3f	0.005624873663872708
245	0x3faa1eed847ceece	0.05101721040997874
246	0xbfa5843e193522cd	-0.04202455575665951
247	0x3f9ccde2071fceea	0.02812913101656892
248	0x3f9b3ff990f6be1d	0.026611232254877593
249	0x3fa3c9eef82b99ee	0.038650005144336905
250	0x3f997fdefbd0cb2a	0.02490185176811647
251	0xbfbc7d13713a447c	-0.11128350748391996
252	0xbfa0796a80bd11bc	-0.03217633077159429
253	0xbf8217b9d7fe3f90	-0.00883431616219335
254	0x3f97346986ede1a5	0.02266087423365239
255	0xbf92f8755fbd1826	-0.01852591893045754

biases_0 f8 [1, 100]
0	0x3fb1f02310881c90	0.07007044938665019
1	0x3fa5cf6d0bdbd4e5	0.042598159501645395
2	0x3fc55a1ffb6ffff9	0.1668128946039358
3	0xbf4f090f3be0e141	-0.0009471248993185092
4	0x3fab96fc9780b769	0.05388631200217626
5	0x3fb87fd493c20f79	0.09570053679823144
6	0x3f96f904f46d9b94	0.022434308451376575
7	0x3fa2f8f0e3ae8ec5	0.03705551890678075
8	0x3f95beb59da22215	0.021235311266112406
9	0x3fa0a4296141f598	0.03250245392062395
10	0x3f7c53fbfe4e279a	0.006916031216755681
11	0x3fb56af70cdca1c0	0.08366340698251573
12	0x3fbdfbaf7d086e50	0.11712166597902152
13	0x3fc39151783e82f6	0.15287226077364097
14	0xbf95bc796765873b	-0.02122678464491588
15	0x3f95b0cbdef1e7c1	0.02118223713157597
16	0xbfbada244b67cb29	-0.10489107933953491
17	0x3f708c956409170b	0.004040320928259576
18	0x3fa8b6f59d6ab5a7	0.04827086969940391
19	0x3fa04e9a9dbbd3ca	0.0318497006937047
20	0xbfa9496627f09146	-0.04938811528725977
21	0xbfc03d964dad5bc9	-0.12687948983031408
22	0x3fa572203e0f519a	0.04188633687559502
23	0xbf91a59132426c58	-0.01723315114268717
24	0xbf9af07e6a70c23b	-0.026308036085710845
25	0x3fa678e255abbf3c	0.04389102264201347
26	0x3fb9aca6e03375b0	0.10029070829064923
27	0x3fa781a7df52b3c9	0.04591106988059541
28	0xbf85571cfda1fa0b	-0.01042006157899513
29	0xbf8cc5e29285f87b	-0.014049310776268911
30	0xbf85508a1822f918	-0.010407523023215279
31	0x3f760b33e7bff98d	0.0053817775296906125
32	0x3f76881bc1875968	0.005500896856082661
33	0x3f9e35bd257be7f2	0.029501872456400187
34	0x3f79328ebcf45215	0.006151731081690777
35	0xbf910ab50fb4d257	-0.01664240749706133
36	0xbfa435c71af572e9	-0.03947279171072699
37	0x3fbe818aff693899	0.11916416869755365
38	0x3f8e0544400051e1	0.014658482745326164
39	0x3fa19eed519b6382	0.03441564198664705
40	0xbfa813b13383cf5d	-0.04702523950427804
41	0x3f9a3e0f270703b4	0.025627362019580338
42	0xbfb19dd9cbde9bd0	-0.0688148615578108
43	0x3fa674475874fc1b	0.04385588602826137
44	0x3fae53ee3dd262e1	0.05923408989582924
45	0xbfa35519e60ca3f4	-0.03775864537448817
46	0x3fbc3af61b20ff1e	0.11027467882467731
47	0x3fa685db5351a8b3	0.04398999588086507
48	0x3f7b042357349237	0.00659574322643102
49	0x3f71fd64f7e94321	0.004392046363663111
50	0xbf947569cdb182df	-0.019979146174935344
51	0xbfb4ef63bf369922	-0.08177779596607995
52	0x3fa16dc873485adb	0.034040702889049
53	0x3fcf7a73d6094dc5	0.24592445326798731
54	0x3f927f9137c930c0	0.01806475546827424
55	0xbfbe052738a1335a	-0.11726613171158587
56	0x3fbd2f9ddb9399f3	0.11400782213932086
57	0x3fa4435c0e254227	0.039576412894011086
58	0x3f9059aff993249e	0.01596713028701357
59	0x3fa1dd3ba409673e	0.034890998624816025
60	0x3faa573c89fd4fb1	0.05144681152765374
61	0x3f67c90392e4329f	0.0029034681130098573
62	0x3f88e7790fe91696	0.012160249517488435
63	0xbfb54735371eb11e	-0.08311779590321008
64	0xbfa7e842ddb5433e	-0.04669388729474243
65	0xbf72ef6801aecd02	-0.004622846866300325
66	0x3f898cfc1b56c8cc	0.012475938400573837
67	0x3fb2620eea6c590a	0.07180875037406423
68	0xbfa115057baff801	-0.0333635056958741
69	0x3fb14e33d77f1f80	0.06759952555796467
70	0xbf9935c7a1ffae28	-0.024619216215724077
71	0x3fb501e9a1f1b359	0.08206043437685419
72	0x3f857346e3ebf4e8	0.010473779516809903
73	0x3f8832fb294a8c61	0.011815988729102668
74	0xbf84563e778df9a5	-0.009930122397915417
75	0x3fb848055daf1c7e	0.09484895264823653
76	0xbfc06783e15086fb	-0.12815903188407404
77	0x3fa550243715022c	0.04162705585850221
78	0x3f9eb107d87ea0d1	0.029972193325790656
79	0x3faa9067df374664	0.05188297843745884
80	0x3f80cb4ba8b8d11d	0.008200255476460467
81	0x3f98ab2ef4008c31	0.02409051288863057
82	0xbf613c0e99dec3a8	-0.0021038327385771334
83	0xbfbd7d35ed2fda98	-0.115191812903371
84	0x3fad72443c34fbe2	0.05751240954349847
85	0xbf7d702a53983ced	-0.007187047327092727
86	0x3fb53c6f84ebb4a5	0.08295342440733806
87	0x3fbe5b8b2f94cc12	0.11858434592868175
88	0xbfb49cf51d4bd067	-0.08051998105276113
89	0xbf8f9552b15a2dfa	-0.015421529805528234
90	0x3f76bb5a87ac805a	0.005549768097608954
91	0xbfa5f64bc05dbbe6	-0.042894713623233646
92	0x3f7ddf45e464bb4e	0.007293007866151792
93	0xbfa2f9de1fa48bd7	-0.037062589037553266
94	0x3f913cbf7616db99	0.016833297331426775
95	0x3f956dbbca4012bf	0.020926412791612444
96	0x3f75cb2b81e59dab	0.005320711088962519
97	0xbfa647f84f98d83b	-0.04351783725398702
98	0x3f7196d8c62d3e77	0.004294249319016444
99	0x3fc93b3d45dbde6a	0.19712034140660545

weights_1 f8 [100, 10]
0	0x3fc3de85280e1a60	0.155228275831365
1	0xbfc22ea00ad42860	-0.14204788712260363
2	0x3fc74a2e5d1d1fe9	0.18195132776804648
3	0xbfca9bf637473e32	-0.20788457583556547
4	0x3fcad5fb5352695f	0.20965520447209493
5	0x3fc2fa80e42b9b10	0.14826975957040434
6	0x3fa25bf282f4518b	0.03585775230945661
7	0xbfc11ea2c5fe85d4	-0.13374743144690504
8	0xbfa2b272aff3e42c	-0.03651770017490494
9	0xbfc113324e3f1a6b	-0.133398330885217
10	0xbfb4acffb0e22c47	-0.08076475208706412
11	0xbfadf1ad83951575	-0.05848448020200695
12	0xbfd0364798975103	-0.2533129682681336
13	0x3fb1e98f1b024485	0.06997007760425518
14	0x3fe2e7f76f4df21c	0.5908162282863176
15	0x3fc2e7da53100e0e	0.1477005868510876
16	0xbfd152a91068ac4f	-0.2706701908343278
17	0xbfc3d163a7cd4890	-0.15482755368663392
18	0xbfd13d6932d39af6	-0.26937322581800005
19	0x3fd16c1c59e96899	0.27222355633205947
20	0x3fd5b3460ceba598	0.33906699430243625
21	0xbfdc84dc483fc267	-0.445609159999583
22	0x3fc44148c7fb92c5	0.15824231877117803
23	0xbfd34bf4b74bc91d	-0.30151098155978834
24	0x3fc95adac38e4ba6	0.1980851607191571
25	0xbfa12d23f356be4e	-0.033547519163559344
26	0x3fda2244eb455446	0.4083416268889021
27	0x3f90fcddb374bf2f	0.016589607313277795
28	0xbfda0a699dccfd56	-0.4068855324766977
29	0x3fad34ae36bd6cc4	0.057042545492288294
30	0xbfbcc1ddca4422d4	-0.11233316600931725
31	0x3fcf9ed1b428d9fd	0.2470342759786063
32	0x3fe0c0a9b15ca969	0.5235184158421308
33	0xbfe062c9dbe9b6b5	-0.5120591445135775
34	0xbfda854ef6254a64	-0.41438650167143565
35	0xbfccd4cee026f6fd	-0.22524438805515237
36	0x3fda64c9c172c871	0.41240161792223434
37	0x3fc21860d9a2f045	0.14136896731167972
38	0x3fd050a5851d5f7f	0.25492227553831265
39	0xbfd43d8eeb40e3ad	-0.31625721906635357
40	0xbfca89baaa1f6b00	-0.20732816035054924
41	0x3fd5010c6779d652	0.3281889925486655
42	0xbfc7407f5811ea3f	-0.18165580559055347
43	0xbfe0b69794df60c6	-0.5222890765826598
44	0x3f92158a963aaab6	0.017660298747311308
45	0xbfc39271af0e3e87	-0.15290661857260465
46	0x3fdd73af04b5d0c0	0.46018577060682375
47	0x3f8146488b4e7c9b	0.008434836150455196
48	0x3fcc561cc9e76054	0.22137794359764718
49	0x3fadc6b7229dcf33	0.058156702972068784
50	0x3faa1979591afda9	0.050975601317527826
51	0x3fc6f1566869d513	0.17924003694830812
52	0xbfd471a97f9c44c3	-0.319437384242587
53	0xbf9a866c6e9a82e4	-0.025903410196977186
54	0xbfc157cca3840cee	-0.13549192413493166
55	0x3fd6df144fa46c43	0.35736568238798244
56	0x3fc27a39bf88f72a	0.14435502865119904
57	0x3fd449562d59fe22	0.31697611264096015
58	0xbfd9700ee2cabfc9	-0.39746448657660643
59	0xbfc2d7e8c09e5afc	-0.14721402554706475
60	0x3fb712a8855445c1	0.09012845282656824
61	0xbfb36ce23b0f0475	-0.07588018361913547
62	0xbfb6b533d049f773	-0.08870242915324215
63	0xbfb510b49a45c3ff	-0.08228615538043015
64	0xbfb73f764f0761dc	-0.09081210545935597
65	0x3fc65f9df0d4366e	0.17479299792505593
66	0x3fc4de0bc70dcd09	0.16302630633763496
67	0xbfba84cb5f18a990	-0.10358878204048083
68	0x3fa10fc9e72e0f7b	0.033323583097653896
69	0x3f5611d627927f82	0.0013470260003387306
70	0xbfcd20ab04412946	-0.2275594492696859
71	0x3fcc7d228dce792c	0.22256881641528403
72	0x3fe2bac5691d4583	0.5852992108358851
73	0xbfbf118d1f81af96	-0.1213615610046744
74	0xbfcebdd54620ce76	-0.24016824650026408
75	0x3fb30d1113be5313	0.07441813213365504
76	0xbfc6f72063ee360b	-0.17941670302791154
77	0x3fd33d30e2e7e302	0.3006097999455478
78	0x3fb14f36f1dd3f07	0.06761496930016274
79	0xbfde9095377b33dd	-0.47757463853923615
80	0xbf435432fad7bf64	-0.0005898713040419609
81	0x3fdab4bc0f5c1ed9	0.41728116512284213
82	0x3f724c2c0869f3e3	0.004467174533258042
83	0x3fb0c54590442f2d	0.06551012775542793
84	0x3fc08a1d66562927	0.12921493050482377
85	0xbf7c904a6077051a	-0.006973543676793948
86	0x3fb2148944c755e6	0.07062585763136262
87	0xbfb400d72bc408eb	-0.07813782518863703
88	0xbfe15d4349f604fe	-0.542634624915223
89	0xbfb395b692295b1a	-0.07650319164654854
90	0xbf8c3c87609ac266	-0.013787324557911162
91	0xbf91dfe40436f0c2	-0.01745563770030923
92	0xbfb3f7d2c5695923	-0.07800023383729075
93	0x3fb8d817989f1a0b	0.09704730487928985
94	0xbfc4deef4aa3d36b	-0.16305342812088539
95	0xbfa9fc72f8c9a1ff	-0.05075415884931899
96	0x3fb04da7b663d084	0.06368492319944791
97	0x3fce8c1048d60591	0.23864940220304878
98	0xbfc7231852527130	-0.18075851459151115
99	0x3fbb2c7feef1b566	0.10614776214216234
100	0x3fa6ffbc1e83a822	0.04491985199440786
101	0x3fa44e7a99d3c911	0.039661246564621895
102	0x3f9dce1fc5e8963a	0.02910661359250908
103	0x3fb20894ef8ef46f	0.07044344757646724
104	0x3fbee84c02ceb7d9	0.12073206966917328
105	0xbfc322ac10fa337c	-0.1494956095597465
106	0x3fbc3b4bb3d50864	0.11027978077348305
107	0xbfa0869b3c6be02b	-0.03227696526113307
108	0xbfbe6ff29b28ca91	-0.11889568603582236
109	0xbfc39dbdab82eeae	-0.15325137018759477
110	0xbfd5f7b87f30329b	-0.3432446710656138
111	0xbfb9d7893cf8292e	-0.10094506968031133
112	0x3fc2a1f5bb4d9c03	0.14556762357389638
113	0x3fd08dea5a56a1ab	0.2586618311129551
114	0x3fb066dc738c217d	0.06406953640919784
115	0x3fd9b230d2846bd3	0.401500897963783
116	0xbfc2fd05b1690317	-0.14834662592513645
117	0xbfb7089e3e89fee2	-0.08997525240738072
118	0xbfda503c3652de3c	-0.4111471682076375
119	0x3fccf65b6ccc9d45	0.22626822292770946
120	0x3fb4839dcd59debe	0.08013330710843555
121	0x3fc3eabcc231ccc9	0.15560111505656085
122	0x3fd1ba5818f9c796	0.27699854315789574
123	0xbfc385474e565e47	-0.15250483822886648
124	0xbf9d31745673c1ce	-0.028508966232893056
125	0xbfed0af93ec52368	-0.9075895524957618
126	0xbf9a159687fd9bc4	-0.025472976732455313
127	0x3fe99f261fcfb5ce	0.8006773587528018
128	0xbfd8232bf2de3e01	-0.37714670865622685
129	0x3fc7bfc3de5f76dd	0.18553970678379175
130	0x3fcce240e83c243d	0.22565471019359676
131	0xbfcb9c5b587b84e5	-0.21570913143572237
132	0xbfd5fd494d04fa05	-0.34358437081746757
133	0xbfd8703155ad4931	-0.38184769980320526
134	0x3fbe86f9ffb03c1f	0.11924707882302286
135	0x3fcaaa8ac32f4430	0.20832953005313604
136	0x3fc5421b309a61a7	0.1660799014396279
137	0x3fdee534e2aa2a4b	0.48273965964532256
138	0xbfb08dca723a8b95	-0.0646635559919971
139	0xbfc55f4dc4653a19	-0.16697094049091346
140	0xbfbd9cfa4148e7f7	-0.11567653745524341
141	0x3fca693a44279aa2	0.2063362915789258
142	0x3fd4ebbdeefd7600	0.3268885454070585
143	0x3fd9c78989397426	0.402803787239295
144	0xbfd2590ba5fe9ada	-0.2866849061050921
145	0xbfc21e397015bcf6	-0.14154737446686
146	0xbfcb2818d66ef941	-0.2121611640013246
147	0x3fde9ed2502daf23	0.4784436972611152
148	0xbfcbe504f3341657	-0.2179266154782222
149	0xbfdc2287b683391c	-0.4396075517987741
150	0xbf90c9abbe2a09b0	-0.016394313317968645
151	0x3f8d9d49091399dc	0.01446015414189799
152	0xbf914f9da432c98b	-0.01690527262389589
153	0xbf89b9775c160bd6	-0.012560780046220115
154	0xbf90f3c223a301c3	-0.016554864335150087
155	0x3fba9f259ea5a99a	0.10399088977070506
156	0xbf85be38cd3fadd1	-0.010616725696272507
157	0x3f863ed2dbf6691f	0.010862014138912244
158	0xbfa8f8535aa75f3b	-0.048769573989999114
159	0xbf8379d0a1f350d3	-0.009509687368712971
160	0x3fbaf0a3a71f7bb5	0.10523436384344971
161	0x3fb3f154b5dd14a7	0.07790116729764184
162	0xbfc6fd114cf8c40c	-0.17959800966630757
163	0x3f97ffbede7330bd	0.02343652947165319
164	0xbfc958c5ec0c2e8e	-0.19802164102326397
165	0xbfc0028df6f7e7f8	-0.12507795866969196
166	0xbf979dfb188f028a	-0.023063586591663333
167	0xbfcbc68664a9a2e9	-0.2169960013882453
168	0x3fdecbc4a137cbf9	0.4811870169061759
169	0x3fa4b5c72a931cb9	0.0404493560286538
170	0xbf98efc36fe7671d	-0.02435212488658244
171	0xbf9ff65aef8623f8	-0.031213208073982174
172	0x3f85831fdad6c62e	0.010504006257948974
173	0x3f8315f1f7026ba6	0.009319200850134223
174	0xbf83a68b08a784f4	-0.009594999505625236
175	0x3fa0f6e5e9d705aa	0.03313368300906501
176	0x3f29b12346d09dac	0.00019601398108302687
177	0xbf81c4f7027ad1ca	-0.00867646194760931
178	0xbf96a0876278ffc3	-0.022096743951123942
179	0x3f71f738b37ad76b	0.004386159409184613
180	0xbfc8476319c22b20	-0.18967856176126308
181	0x3fce12dd91a8f350	0.23495072948744644
182	0xbfce94ce5d7a9a50	-0.23891620220566034
183	0x3fe003e6a4dd8d15	0.5004761905696876
184	0x3fca61e42622d2b5	0.2061124025546143
185	0xbfa6615eb8bb545e	-0.04371162419344253
186	0xbfc631e45d9d786c	-0.17339758463907928
187	0x3f9cee2379671ef0	0.028252176556434472
188	0xbfd7e9063dc4096b	-0.37359767944157934
189	0x3fa8ba312c98c269	0.0482955328883506
190	0x3f854c80141779c8	0.010399819005155644
191	0x3fd292d3067577db	0.29021144514797265
192	0xbfdb78c301af603e	-0.42924571194226135
193	0xbfc51e7a26dae659	-0.16499258897038052
194	0xbfd3a6579e847748	-0.3070277259847569
195	0x3fd8b458e0f76f87	0.3860075184763833
196	0x3fddb258a21eacbf	0.46401038963331226
197	0xbfc05df30ecaf6b2	-0.1278671095114326
198	0xbfd462e45c7975ac	-0.3185358908720797
199	0x3fc67f2e5304865d	0.17575625470731185
200	0xbfb3a13726e5bd50	-0.07667870235103647
201	0x3f4d9746881027ac	0.0009030432121346263
202	0xbfc3e0a4d8129ec1	-0.1552930884401942
203	0x3fdd6a9974945e2c	0.4596313131782803
204	0xbfb3879fd460f14e	-0.07628821311022202
205	0x3fbfc73270700e79	0.12413325543462318
206	0xbfcb5b71f4633c9a	-0.2137281840609589
207	0xbfc3af452f0e5131	-0.15378632352497726
208	0xbf9d739a8911a07f	-0.028761305442828174
209	0x3fbdf59974063a58	0.11702879984498205
210	0x3fd519e481afd758	0.3297053591226038
211	0xbfd3e91222fb002e	-0.3111005155187766
212	0x3fc1946706bc9b25	0.13734138325636383
213	0xbfd8afa1c5d1e2be	-0.3857197219690923
214	0x3fc45b62a0f53fe0	0.1590388570716632
215	0xbfc2fcbb61582668	-0.14833776715413483
216	0x3fe380a0f431c30a	0.6094517487927942
217	0xbfe30c6acb85bc6c	-0.5952657675787925
218	0x3fd2cabf80680412	0.2936247590988056
219	0xbfbc2a1fa7b75ed8	-0.11001775593410501
220	0xbfbc826c9dba87a5	-0.11136511660381972
221	0x3f902b6b05a6055b	0.015790626735456708
222	0xbfbd8066ff1250f7	-0.11524051406223977
223	0xbf6f0336f21cb5e9	-0.0037857125434104144
224	0x3fca7f7f5a7440a7	0.20701591412262596
225	0x3fb4b04a183b7abb	0.08081496326074504
226	0xbfb747f45df3f910	-0.09094168943190462
227	0x3f85c11575068cae	0.010622184404218107
228	0xbfb0f1152dcc0709	-0.06617863052454366
229	0x3fb5446154160204	0.08307464888458332
230	0x3fac06dae5d0ee33	0.05473980002758729
231	0xbfb399563a2067f6	-0.07655848425966369
232	0xbfc341c848ef373b	-0.15044501839877875
233	0x3fcc344716db83ae	0.22034538856590075
234	0xbf82b9bcf2416470	-0.009143329756783752
235	0xbfa374638b936748	-0.03799735144430244
236	0x3fd2150cf589b6bd	0.28253482797922996
237	0xbfc99fbb9decaa16	-0.20018716059833314
238	0xbfb20d6c6824d54a	-0.07051732580733475
239	0x3f60e8c796b9a230	0.0020641229837574868
240	0xbfc52b2f2c52c415	-0.1653803793356309
241	0x3fc3bfc797cd73f0	0.1542901507590666
242	0xbf9f0d45f47606cd	-0.030324070974080897
243	0x3fd6af91c911ce5a	0.3544659102983353
244	0x3fc3f375c8b41779	0.15586731243109478
245	0xbfddc8224498b32a	-0.4653402013671434
246	0xbfd2aeacca1c10f1	-0.2919113134123697
247	0x3fc5dc972946cd03	0.1707943870111209
248	0x3fbc20f4303ba181	0.10987783601343006
249	0xbf847f79ef495335	-0.010008766760770985
250	0xbfa11133e56b1c4d	-0.03333437133328996
251	0x3fddd0eb15037dba	0.46587636043656355
252	0x3fa1e47df3ac1ce8	0.03494638061061456
253	0xbfd7b48c6fb3fa50	-0.37039481075763536
254	0xbf91f38b9d97c42f	-0.017530614370063254
255	0x3fc9d8d405bece2a	0.20192957191976407

biases_1 f8 [1, 10]
0	0xbfc49748be39a74d	-0.16086682594623838
1	0x3fca8c1b02133df5	0.20740068055464148
2	0xbf9e3fdf8deb0c87	-0.029540532147404732
3	0xbfc14771aaf6d3df	-0.1349927983079899
4	0x3f9c016ae25350ed	0.02734915739422743
5	0x3fd8b22166c23bb7	0.38587222132712945
6	0xbf9e1abd551cc13a	-0.029398878402561147
7	0x3fc2b98c42e9e46a	0.14628747241275458
8	0xbfd758dc2684d612	-0.3647985817109155
9	0xbfa8394470c38cce	-0.04731191517364551
