bsc_neural_networks/assignment_3/multi_layer_perceptron/model_parameters.npz (npz, 673996 bytes, 6 tensors)

weights_0 f8 [784, 100]
0.029564478962145903 0.030838842256168394 0.005076424668689507 -0.020556408203639992 0.07462209591925628 0.04825318431202406 -0.03086890738019592 0.02125596917149651
0.051950633051972665 0.023262643784700686 -0.0004194415334568332 -0.04060062010121433 0.03030752244382911 0.000479773130349402 0.04671384460814885 0.004640528068893729
0.002566485656117111 -0.07339659514097324 0.022979175872344042 -0.02277410629128584 0.03620270679444221 -0.028316860692544278 -0.05069486751404815 -0.03752567919023625
-0.007171607055330589 -0.021504497999232333 0.005667497803938573 0.0388851996087745 0.0592655471558216 -0.07660806828904786 0.04825167055428582 -0.08535620084743588
-0.09294458006672834 0.0374980893621554 0.04131858914302677 0.004003316615598836 0.012661497802454858 -0.0005006957380884969 0.056757020539583584 -0.009170311073904668
-0.013455187789695898 -0.07912562769742112 0.030791449022298457 0.050167151091643596 0.08161466917931105 0.0015104476459160158 0.01567706474328112 -0.009514006129705547
0.02064042446373172 -0.06199301190702956 -0.030764412883877892 -0.0261796617753511 -0.06585881441730781 0.026971279766433275 0.010457644344977755 -0.02083766962809889
-0.02155843781168523 0.013107386461799394 0.03421809294778981 0.0038173274390482714 -0.03244968302623414 0.00431943226804607 -0.01065377433971552 0.006002427662547681
-0.01473303393846783 0.017536928951695112 -0.04398461561204329 0.061068137524563644 -0.08070029482818915 -0.027119530467975054 -0.06669226506552432 0.04838997773592931
-0.029658406350790523 -0.016497049806301043 -0.045806895596554265 -0.01086541437382911 0.00956049969406754 -0.07643402013547076 -0.036470659474327205 -0.04817957898719962
-0.08205004220114984 -0.032781268631500445 0.034928176728881044 0.08607733154344659 0.02040701495172121 0.005910625139054658 0.0099796757091589 0.04012473337806608
-0.028827677327461596 0.08486625669657707 0.03444050879812821 0.017740221103195668 0.05628836379606865 0.06335039340344531 -0.014686839380872316 -0.008883390945405568
0.031960572523925666 0.07775536857323675 -0.05628386606527295 0.03642385388869167 0.015137942023841352 0.0828686883700183 0.0663011000694715 0.02931220963184779
-0.06836618801056372 -0.024316133265128315 0.008035185250663813 0.09805446253966028 0.10120395893316556 0.0212590733494995 -0.06216186252025443 0.0009072211435107226
0.11779981192503126 -0.028162707004862748 0.07587178172837022 0.022314366128041475 0.08102268492095806 0.06369719710913196 -0.04263716502422051 -0.047419475886986306
-0.02410384282598993 -0.07227655857433544 0.05593721958750078 -0.07201578831267279 0.021674125371987107 -0.040906434485410925 -0.04855330932740846 -0.0191238139940612
0.07238627532273464 -0.002972363443417143 0.02149251522714379 -0.042474659945288026 -0.05226243465451755 -0.07168293534669387 0.03643879860645834 -0.07340241555191997
0.016283724887187382 0.013528768313769977 0.03342045227299313 0.04654926780970708 0.028187219507081335 0.013465590178684286 -0.04083641049995068 0.0730325016349541
0.014708627328906623 0.05776862665957099 -0.023600683380612462 -0.026611443739605282 0.004770897817923149 -0.03527949526129634 -0.029973167373080145 -0.015868638978588766
-0.04763651852659648 -0.0017431178336765767 -0.027581158444179018 -0.05717579258291142 -0.05575073956264343 -0.030556393261318735 -0.03311866727502995 0.02738641008509865
0.03499278605254081 0.00299389038380227 0.01616180812799439 0.05384142462454653 -0.05104172919494428 -0.013118690673459152 0.03955479125912579 0.014420013514652118
-0.038888783006958055 -0.04758184347392973 0.06334764850037794 0.02200916543153999 -0.024799700737604125 -0.06622056693842508 -0.0371232712913999 0.07676367847263263
0.021336832666523017 0.007252211251903319 -0.015007370586469141 0.046321634134355555 0.12790376671851944 0.02227326605902409 -0.04104319754160595 -0.0034116291374308143
0.008443868998484694 0.023268380121967552 0.0570839267388913 0.02341349507957585 0.01512952539264282 -0.07851834679243967 0.005537624222661009 0.033292469817416466
0.028641046630950684 0.015808334719792795 -0.030579125250221054 0.03980366442689443 0.05065849132616886 0.0136341580275204 -0.027817399835053006 0.15036424059477205
-0.036309659262054136 0.058889304254145194 -0.04654659660467344 -0.028582752284298713 -0.060854220087787694 0.03772756450701244 -0.01801261732671832 -0.1126545236179464
-0.0144029017418215 -0.055347319957404766 0.00017796384606763062 -0.03636847652686294 -0.06440788252234962 0.025236463648311704 -0.032283787612052195 0.06775320660894212
-0.0340615591363917 0.08737808434383625 0.04547946571242813 -0.06434713648818584 -0.002314014810680805 -0.030394208214236718 0.035367055678376426 -0.05942318391192076
0.00028444094048171796 -0.0904771715646903 0.016965525256265795 -0.008639044581697208 -0.03344491896030976 -0.0785824636066196 0.022855454996889277 -0.039383961894474726
-0.026226411456448922 -0.03560080570815647 -0.04168756203976678 -0.05819323958729025 -0.011485008674190353 0.02400919663005846 0.05458458918909939 0.010188203901723588
0.09690574061019867 -0.061219013236599895 -0.030605216710618378 -0.018139110617336154 0.12261350660407835 -0.025439976438119082 0.04904462870598798 -0.042170747732230514
-0.08860484117098483 0.014682557803091289 0.0654849053302581 -0.004156885930969093 0.03746722284244358 0.0228599937709323 -0.01926003792060737 0.08776175466282714
00000000: ca12 1099 2646 9e3f 5f3a bfab 3794 9f3f
00000010: 750c ec5e 04cb 743f 38d9 d433 bd0c 95bf
00000020: 003d 8805 6f1a b33f ed93 1831 a4b4 a83f
00000030: 2d10 a54e 199c 9fbf 9cd5 bef1 1fc4 953f
00000040: afef edfb 4599 aa3f a65b 1899 29d2 973f
00000050: 743e 35ab 0f7d 3bbf fe66 10bf 9ac9 a4bf
00000060: ee49 e066 ef08 9f3f 187f 83e7 4171 3f3f
00000070: cd8f b985 e0ea a73f 2050 ac44 f201 733f
00000080: 7d79 ad7e 4f06 653f e4aa c487 1eca b2bf
00000090: 6e68 7163 da87 973f bfe6 dd66 1852 97bf
000000a0: a8e8 6a43 2989 a23f 2a43 665a 18ff 9cbf
000000b0: fd84 187c adf4 a9bf 98b6 c3d9 9036 a3bf
000000c0: 76d2 329c f95f 7dbf 1491 7e6e 4605 96bf
000000d0: dd34 7d5b cd36 773f 067a 3cc9 c2e8 a33f
000000e0: 57aa a0c5 0d58 ae3f 1744 e91b 969c b3bf
000000f0: b21b 0466 71b4 a83f 178a 266b e7d9 b5bf
00000100: 1020 ba4b 37cb b7bf 9425 f216 f332 a33f
00000110: 3f1d 2cca b527 a53f 0851 081f c865 703f
00000120: 07e0 d677 45ee 893f cdca 00e9 2368 40bf
00000130: 0763 1296 410f ad3f 4ca6 4051 e2c7 82bf
00000140: 3f71 25bc 648e 8bbf a663 3cbf 9341 b4bf
00000150: 3d5b 302a cb87 9f3f af50 8b42 82af a93f
00000160: 79be ffee b2e4 b43f 0c38 75cf 46bf 583f
00000170: 008a 7a01 a60d 903f 42bf 7249 147c 83bf
00000180: c36b 3070 c322 953f 2245 714d 8cbd afbf
00000190: 241a decc b480 9fbf 35f7 945c d7ce 9abf
000001a0: 225f 138e 1fdc b0bf 93c5 1cf2 5b9e 9b3f
000001b0: 7f97 a343 d16a 853f ea65 4f56 7856 95bf
000001c0: e788 6a45 6a13 96bf 6b04 84a1 0bd8 8a3f
000001d0: 66d4 48ac 0885 a13f ee61 4810 8445 6f3f
000001e0: d9fa b9ae 3e9d a0bf 61b8 41c5 40b1 713f
000001f0: 15c0 f162 a5d1 85bf 18b0 1d68 0096 783f
00000200: 4c1c 7e57 5a2c 8ebf 3e7b 4761 33f5 913f
00000210: 1566 29cb 2685 a6bf 61c3 fdaa 5244 af3f
00000220: 9d8b 1047 c6a8 b4bf d174 c5e1 38c5 9bbf
00000230: 5b43 5a89 be12 b1bf bbf3 a837 92c6 a83f
00000240: bdff 4ff5 c55e 9ebf 791c 9845 9ae4 90bf
00000250: 2077 095d 0074 a7bf 6809 253b 9b40 86bf
00000260: 28cf 278c 7494 833f 729d c810 2e91 b3bf
00000270: 085d 6943 48ac a2bf 738e 2b68 feaa a8bf
00000280: feac e347 3b01 b5bf b12a 63d9 b4c8 a0bf
00000290: f0d6 8421 1be2 a13f 0bf3 e7fb 2909 b63f
000002a0: f276 4e97 93e5 943f 3e0d bd5a bd35 783f
000002b0: 353b 5d66 3970 843f dd30 3da3 3a8b a43f
000002c0: 3c46 5dad 0085 9dbf 96b5 0b85 cbb9 b53f
000002d0: 9020 e4b5 2fa2 a13f 8e1f d915 7e2a 923f
000002e0: b686 4c13 d4d1 ac3f aa45 db3b bb37 b03f
000002f0: 7261 9436 2214 8ebf 7a6d b48c 7431 82bf
00000300: 6bde 80db 225d a03f 4a48 1c9d c6e7 b33f
00000310: c5e8 1528 3dd1 acbf a60f 7eba 25a6 a23f
00000320: 0b80 5e2f a400 8f3f 8361 69e2 e136 b53f
00000330: 5db9 7ce0 1bf9 b03f e518 f816 0504 9e3f
00000340: c155 a84d 7280 b1bf cd3c 8e14 54e6 98bf
00000350: 3a83 f34e c074 803f c5ae d5e5 181a b93f
00000360: f6fa d7ad 80e8 b93f ff11 1e43 f0c4 953f
00000370: 3b77 2afd add3 afbf 348c 2092 52ba 4d3f
00000380: d565 b1e3 2028 be3f 15fb 3546 afd6 9cbf
00000390: fc6c 3645 556c b33f 1aee 00c3 93d9 963f
000003a0: 7d39 f815 e7bd b43f fc3a 6ea2 754e b03f
000003b0: bb11 bfda 89d4 a5bf f891 4194 5d47 a8bf
000003c0: 500b 9582 adae 98bf 6f1d 586f b780 b2bf
000003d0: 44d5 83a1 cda3 ac3f 1b3d 996f a06f b2bf
000003e0: a37f 91ee bd31 963f 0822 9f2c b0f1 a4bf
000003f0: 25fb 58b7 fadb a8bf 2d95 b76e 3195 93bf
00000400: debd 302d e887 b23f 426e 0079 7f59 68bf
00000410: df96 0948 2202 963f f659 bf16 3dbf a5bf
00000420: 040d 4d4f 24c2 aabf 1ece fe16 d059 b2bf
00000430: 4bfa a330 1ba8 a23f 912e 3e2e 80ca b2bf
00000440: 31df 6347 aeac 903f 1fd2 b38b f8b4 8b3f
00000450: aa60 0f4b 7c1c a13f c776 ca3d 4ed5 a73f
00000460: 78d7 ca47 1cdd 9c3f 2ea3 82eb d893 8b3f
00000470: d0a8 2a8f 82e8 a4bf a733 110e 42b2 b23f
00000480: ae0d c68a 8e1f 8e3f a7b2 7974 d993 ad3f
00000490: d6c5 210d c72a 98bf 5169 3ec2 0740 9bbf
000004a0: 68cd 9b21 a68a 733f 2cba bb6c 2710 a2bf
000004b0: 50e9 7f36 49b1 9ebf 53c0 c755 de3f 90bf
000004c0: f484 5552 d063 a8bf ca82 ad85 2a8f 5cbf
000004d0: cfa0 0336 3c3e 9cbf 9470 883e 2546 adbf
000004e0: d179 4c66 5c8b acbf 59dd f6d6 2c4a 9fbf
000004f0: 0aae aa11 eef4 a0bf 786e aede 2e0b 9c3f
00000500: c917 620f 93ea a13f 07e0 28a9 a486 683f
00000510: 3f75 6a95 b88c 903f 8d6d dd6b 1a91 ab3f
00000520: 1a45 3f3b 2422 aabf b851 45db f8dd 8abf
00000530: 9552 b78d 8640 a43f 6660 a073 3d88 8d3f
00000540: 8c6a 6406 3be9 a3bf e634 35bb a55c a8bf
00000550: b46e 962e 8d37 b03f c67e f616 9289 963f
00000560: 7071 79be 1765 99bf a3b7 52c1 d4f3 b0bf
00000570: 4df4 3b48 d201 a3bf 8e84 8fd0 c8a6 b33f
00000580: ec02 039a 52d9 953f e8e3 68a2 7eb4 7d3f
00000590: af54 f12e 2fbc 8ebf 849e 681f 78b7 a73f
000005a0: 38ae 8b8f 265f c03f 34c8 3195 cdce 963f
000005b0: c734 542e 9d03 a5bf 7c77 4872 b4f2 6bbf
000005c0: 7a02 9ae9 044b 813f 0876 9e8e aad3 973f
000005d0: 720c f1bc 1a3a ad3f af7a 9b0e b5f9 973f
000005e0: 558b 1f86 3afc 8e3f 2b09 9c43 c719 b4bf
000005f0: f41d f1ae 9eae 763f 0943 23ea b50b a13f
00000600: a09e 691a 1454 9d3f babf 8062 0f30 903f
00000610: d158 8f5b 2250 9fbf c1ed f259 2561 a43f
00000620: b36c 05e7 e8ef a93f aa8d b1b6 39ec 8b3f
00000630: 348a 341a 2a7c 9cbf 78d4 ebab 223f c33f
00000640: 166d 1efe 2d97 a2bf 8224 b627 bd26 ae3f
00000650: 8379 509c f4d4 a7bf b8b5 2909 cc44 9dbf
00000660: 5a86 33ca 4828 afbf 3242 6eff 0651 a33f
00000670: fe9f 5549 e671 92bf 827f af46 edd6 bcbf
00000680: 96c8 96bf 447f 8dbf 77cf 46e2 7b56 acbf
00000690: 4073 26cc 7953 273f 9291 9392 e39e a2bf
000006a0: 07c1 09f5 087d b0bf 6a0f 2568 96d7 993f
000006b0: 5034 f827 8087 a0bf 3fa4 952e 4658 b13f
000006c0: f948 1545 8470 a1bf 0bd7 a4fe 685e b63f
000006d0: 92b5 bfa3 1549 a73f 83d9 cece 0d79 b0bf
000006e0: c40f e63d d7f4 62bf 7064 12c9 a81f 9fbf
000006f0: f526 fd76 a11b a23f d941 0d2f b76c aebf
00000700: 0ea6 7989 20a4 323f 3ba9 e70c 8329 b7bf
00000710: d85d 8a20 695f 913f 539c 93ef 58b1 81bf
00000720: efc5 4d42 b11f a1bf 39c3 3af7 fa1d b4bf
00000730: 6cc3 fc9e 6b67 973f 46b9 a578 222a a4bf
00000740: 2bd0 fcad 18db 9abf dd9f 74d0 443a a2bf
00000750: c3b6 3877 1258 a5bf 4c5c c019 81cb adbf
00000760: 4b0b 33c5 7385 87bf 103d 51e9 dd95 983f
00000770: f494 dde2 82f2 ab3f 7ec8 8094 8ddd 843f
00000780: 8b28 b78a d0ce b83f 983a 7d37 1958 afbf
00000790: 8db7 6f53 f956 9fbf d41a 851b 0f93 92bf
000007a0: d292 e948 9963 bf3f d33c 40eb ef0c 9abf
000007b0: 7a61 aca8 601c a93f 1131 b77c 6797 a5bf
000007c0: 54be 188f ceae b6bf d9ef af8c e311 8e3f
000007d0: e96d c666 9ec3 b03f 1106 0792 cf06 71bf
000007e0: 887b 8f61 e72e a33f a41b 8836 9c68 973f
000007f0: 3e75 f443 e7b8 93bf 93cd 1dea 8d77 b63f

biases_0 f8 [1, 100]
0.01351759495003446 -0.012413264634250005 0.011644832558141348 -0.006426715534085948 0.0549901761303985 0.015919649197020266 -0.009697834998360506 -0.037868250299533876
0.04912716801699148 0.03178438590182646 -0.036504288863232336 0.04263380496291721 0.10582207245886788 0.04772127533738148 0.044841253329491224 0.04412647055179987
0.036727332104087726 -0.008374256984543523 0.01801085215984575 -0.009634166557983905 0.002277711814729672 0.010435579386026617 0.031094596333751043 0.004465108926611399
0.010559749224683456 0.024632355154788305 0.039396114259214084 0.030888705118259314 0.019917523793326085 0.0864020526128128 0.06650550111347012 -0.02538759132552817
-0.06927727744459061 0.03372469003951405 0.0074502560159823965 -0.0027836200097629245 0.02393746794960145 0.05686698624187879 0.025038391590975873 0.07038977359304134
0.01909484374516372 0.04635408959105965 -0.024531423103129106 0.05672041970769159 0.020351266453581974 0.005024951996842219 -0.011479183869258976 -0.015249327531388421
0.0043518108702481455 0.024952249955834723 -0.037337979999680186 -0.03749126280378639 0.035721366572606744 0.02623115655669321 -0.007601674734868853 0.023303447042529013
0.017555353821831605 0.016314953566093846 -0.003783833104761747 0.013404102719277186 0.02374509452997149 0.06670935208761809 0.0029037292132188855 0.002640949775245044
0.05938585120038074 0.03571782643960076 0.024541279485662894 0.011907669800676772 0.023340171769013207 0.06199759631899263 0.0758975157835132 0.0375011705543201
0.01610952668855708 0.06404187983174102 -0.008712312463446668 0.009527143715382156 0.035981025166995466 -0.02522249957499593 0.022207694765053087 0.020424553507842287
0.02820688446349802 0.005148303223549097 0.04137313673129664 0.007073653854421589 -0.0167391379882187 0.009106618860855334 0.014058624860274016 0.02870652785105962
0.023255002936136228 0.00040924681975707216 0.020196136364332852 0.014350924924713716 0.01708158130935315 0.01160491936592268 0.06786462287331452 0.025439003628655494
-0.006161181909143929 0.048498795857381975 0.04226466696745393 -0.007415132657759556
00000000: 3f08 d9e1 1caf 8b3f d725 202d 206c 89bf
00000010: 9972 09f8 3ed9 873f a72d a250 e652 7abf
00000020: 94a5 2920 ac27 ac3f 5ff4 a892 3d4d 903f
00000030: 779a 4761 75dc 83bf 2ebd 2fa1 7763 a3bf
00000040: 53c6 f437 3227 a93f 368e f103 0b46 a03f
00000050: c3a2 a9ad b0b0 a2bf 8b1f 0a1c 19d4 a53f
00000060: 30e1 67c4 2717 bb3f 8280 cb49 ec6e a83f
00000070: 56a6 1fc9 6ef5 a63f a2d6 d0a7 be97 a63f
00000080: 3e45 83c4 eccd a23f 7eeb 03bf 8526 81bf
00000090: 9a9e ffd3 6f71 923f ce78 53f2 13bb 83bf
000000a0: db93 2038 b5a8 623f 5a20 6cc1 3f5f 853f
000000b0: 4cd7 5709 43d7 9f3f c687 018d 014a 723f
000000c0: 2681 978c 59a0 853f 95ca 405f 3939 993f
000000d0: 4165 aa3c ba2b a43f 72e1 31e9 49a1 9f3f
000000e0: 9611 3d65 4265 943f 5b80 47e6 711e b63f
000000f0: 8254 4928 8106 b13f c792 de69 34ff 99bf
00000100: ccfd fad8 27bc b1bf 9f2c 93d1 5c44 a13f
00000110: 1eb1 f7de 2884 7e3f ba6a 019d accd 66bf
00000120: 9268 f847 1083 983f 0e0c 436c ab1d ad3f
00000130: e058 1c04 aaa3 993f a911 8e6f 1005 b23f
00000140: 4b7e a145 998d 933f 5aae a825 b9bb a73f
00000150: 0e22 cfef c31e 99bf 3fe2 5177 750a ad3f
00000160: 5db9 665f f6d6 943f 3fb5 d847 0b95 743f
00000170: 1108 6dfa 6582 87bf c535 4418 0a3b 8fbf
00000180: 6c84 db55 34d3 713f 2f74 1626 158d 993f
00000190: d7a1 feb5 f61d a3bf b789 4107 0e32 a3bf
000001a0: 9442 652a 124a a23f 2c63 301e 57dc 9a3f
000001b0: 15f3 1806 ef22 7fbf 7017 badb dbdc 973f
000001c0: 824d 23da 07fa 913f cc2e 0200 deb4 903f
000001d0: 4dfa 07ee 45ff 6ebf 4bfe 7d36 9c73 8b3f
000001e0: 3460 c951 a250 983f 41bd 8d35 dd13 b13f
000001f0: cb1a 3bc0 8fc9 673f 8d23 481d 79a2 653f
00000200: 4e63 8081 d267 ae3f c173 e260 9b49 a23f
00000210: a7f2 2b63 5921 993f 697d ec62 0c63 883f
00000220: d046 b969 7ce6 973f 35ca 3d21 26be af3f
00000230: 0649 2304 056e b33f 2d5f 2f7a 5a33 a33f
00000240: 2e25 2009 047f 903f efa1 7373 0c65 b03f
00000250: df04 d3c8 c2d7 81bf 1f72 7495 f782 833f
00000260: 27d3 bcdc 1a6c a23f 0b22 314b edd3 99bf
00000270: b31a f12a 9dbd 963f d205 6895 2cea 943f
00000280: 14cd 2bf9 43e2 9c3f 09be 991f 6316 753f
00000290: 0441 631a dc2e a53f f1c8 7c7f 43f9 7c3f
000002a0: 43f9 e388 1024 91bf 9be0 79b1 7da6 823f
000002b0: d34b 03b0 c4ca 8c3f 3843 3579 3e65 9d3f
000002c0: bafc 50d4 28d0 973f 2c08 f4b4 05d2 3a3f
000002d0: 4aef c2c4 4bae 943f 5481 c089 0464 8d3f
000002e0: 6bbd 5984 d57d 913f 04e1 31e9 51c4 873f
000002f0: a8d7 cb6f 935f b13f 65f8 82a2 ae0c 9a3f
00000300: 7126 dfac 773c 79bf e7a6 348c d5d4 a83f
00000310: 7497 cde4 b6a3 a53f bb54 2b84 545f 7ebf

weights_1 f8 [100, 50]
0.24135614856237814 0.1612043964591347 0.2709233633620989 -0.08004169473223283 -0.1345715124963509 0.26322900183386855 0.13301652446208634 0.12654964275122624
-0.05534946932210804 -0.013469341202252199 -0.19062196049154026 -0.09318467677608548 0.1886183887064396 -0.0550146496763293 0.10437863544444821 0.0017429964524005833
0.22377604219261998 -0.186565362739203 -0.04979344105098606 0.11478179159884794 -0.25526054205471976 0.10483139728623979 0.09672852764400773 0.062308835334256366
0.015930207516684225 -0.01605204042247491 0.4195561155025882 0.20608409184692597 -0.22396445983847582 0.006740816953573441 -0.2744554992105133 -0.08309979449008358
0.2938676784549499 0.0634862812550523 -0.025745996021320057 0.07907561500009122 0.26776357967822845 0.13297251505659505 0.09021397894546425 -0.09150555178562865
-0.1274926038710659 0.06348227105689436 -0.1575162020729697 -0.13554132219179954 0.06235190592433701 -0.03445973092594145 -0.05238557011128726 -0.17169937966212945
-0.0947359858817088 -0.022546323817069117 0.05910676808744146 0.38926032495221086 0.2778196759729197 0.15624893324621356 -0.09147742907298773 0.12336019565026578
0.07526299911031 0.34035850428904013 -0.05961793844076876 -0.1421627922166146 -0.6250454571634028 -0.12009327392312774 0.2590292121416673 -0.34987480575745084
-0.15922417626784646 0.10958943490786416 -0.018815191634226874 -0.2116357404493586 0.02895507747964745 -0.15018835143354833 -0.057878378034802495 -0.21099373915582434
0.12839102793259777 0.10050972964748602 -0.02847248650602543 0.1886254507788449 -0.12746374805261235 0.22730175563208532 -0.10601643055458171 0.16491059211727133
0.1308242330344693 -0.22285792141599053 0.13603700867129911 0.18121800769878835 -0.09133170863195215 0.14027219099256039 0.008914380414827073 0.08281032407220898
0.028345363171886965 0.09511146162622174 -0.1385854491237508 0.14212779311099097 0.06495092159593072 0.17106573858649132 0.08541408138250987 -0.15879556398770012
-0.04741480904550778 -0.0074233656049384625 0.07654894804741187 0.06530451367635669 -0.1824809997405126 0.1796812720983685 -0.0927039245565839 0.1799503545692063
0.07183249299948727 0.03307399164369127 0.09210759761106968 -0.19173524800420447 -0.15917040813773756 -0.012458476650012415 0.15234460593889712 0.2553512129039592
-0.1079526258130622 0.01025600211418189 0.34170796879885174 -0.10622069166823779 0.08872196490053302 -0.07820835786158083 -0.0315884086282522 -0.006880388179878924
-0.17895170640627633 0.18063050410936868 -0.38215609078025714 0.08227776314257126 0.16025099606267795 0.12071769025384058 -0.07014497922037718 -0.226846796107652
0.04805668828003011 0.01685078697766016 -0.05242078594771437 -0.09048328241488705 -0.0022351337654525536 -0.2120025863399816 -0.11105303969108675 0.07705765819939685
-0.14609862497068055 -0.3449495007899901 -0.09221210353486127 -0.07470038435458023 0.1330324443592646 0.16979897537433222 -0.09852070212828797 0.26388031261226425
-0.04698454028857712 0.11883678886829883 -0.12244810212570839 0.002378789505681301 -0.023866553535858794 0.14554943308774362 -0.11169796030011162 -0.13328318796053276
0.023970225824187036 -0.1292657139904547 -0.11105522596991145 -0.30099129491426363 0.16652671005999814 0.16491996508159062 0.08742317623901885 -0.011085038710736683
0.17370661837221282 -0.006956757266887636 0.0821010975025702 -0.22045482134826896 0.16366390735797315 -0.0677107477696813 0.1916393745059922 0.035517922956554
0.2932250486097444 0.09384543095594505 -0.09272152310966729 -0.01537408507291179 0.004260497643636173 -0.22750790360886006 0.028781229392650175 0.027119289651806027
0.09942269828141319 0.22362039186535465 -0.03699412136154183 0.08572932929887679 0.08212778734050177 0.06491023291334796 0.08227445608494549 -0.4189624049428721
0.23188002335671157 0.029897372086022153 -0.16653387990046936 0.18781363875068455 -0.36722512712010025 0.06472224943096708 0.12340783534489048 0.2529704542970608
-0.16311745439048514 0.23946340186897966 0.06303720208560576 0.08462343589180697 0.0406411256465467 -0.030375639410101025 -0.0063632949342602935 0.07037103260609255
0.10038550544849263 -0.06877736666934407 -0.1053084945916624 -0.16174148442813663 -0.09169321195167567 -0.15809704497183721 0.19753289530028503 -0.5221160969280589
0.018209723598101312 -0.09170358681784922 -0.25709283505790104 0.14484730740472213 -0.14983795081903428 -0.18519379122214846 -0.037767869809724346 0.009225906950478846
0.2898053603204967 -0.16092476196969413 0.21542946904558422 0.2317541466815427 0.03779737336585284 -0.13344717344436685 0.011854060509224154 0.07573116073312766
0.058746894046938274 -0.32832349530076094 -0.2285091623969872 -0.13047016706613074 0.19212078275682742 0.4385696174747463 -0.16590420945085615 0.08130904341278433
-0.12181536852592406 0.22628554380497792 0.31365238767707765 0.14841543370227994 0.3079907175721049 -0.04836269431483301 -0.0005630272192036108 0.24212996304904122
0.11122769911122105 -0.1113578172096164 0.31230054787535566 0.20457377656971348 -0.0647725119534218 0.016338729629632242 0.08250136430960507 -0.017993646156945185
-0.1765332848772328 0.02164677354934533 0.09963389364315679 -0.20203557511859088 0.16255842270455512 0.13016622796452149 0.08758451555737388 -0.11487079259340188
00000000: 82c8 611e c2e4 ce3f 26b7 617d 58a2 c43f
00000010: d833 57f2 ce56 d13f acfc 30cd 9c7d b4bf
00000020: 1092 92aa a339 c1bf 580d 8f74 bed8 d03f
00000030: 1435 327b af06 c13f 9fef 7758 c732 c03f
00000040: 0fc7 2d01 c456 acbf 89de b25f d095 8bbf
00000050: f1f3 1ae7 4c66 c8bf abda 3d73 f3da b7bf
00000060: 468d 75b9 a524 c83f 604b 5252 e12a acbf
00000070: 1d90 a2e9 8eb8 ba3f 748d a530 a88e 5c3f
00000080: 3e3d 6c7f b1a4 cc3f 2000 c4b1 5fe1 c7bf
00000090: 7313 bda1 867e a9bf 18e5 17e9 5662 bd3f
000000a0: 6b64 0550 3056 d0bf df39 f0fe 3ad6 ba3f
000000b0: 1f3d d266 33c3 b83f d263 0694 f1e6 af3f
000000c0: 70ea 3521 0250 903f 892a 9832 f26f 90bf
000000d0: 14e8 bae4 01da da3f 17ad 5aa9 f660 ca3f
000000e0: d17c 3c0f deaa ccbf 129e d245 429c 7b3f
000000f0: ad41 54cc ad90 d1bf 93a4 a333 0746 b5bf
00000100: 6430 1461 bace d23f 0130 bc0d a340 b03f
00000110: d276 a88b 285d 9abf 7a23 56ac 4c3e b43f
00000120: cfc8 71da 0923 d13f 39ac b74d 3e05 c13f
00000130: 297a 3669 4318 b73f 8d5b 5268 e86c b7bf
00000140: 95d6 0d7a ad51 c0bf e4ae 10c6 5f40 b03f
00000150: 112c 3fac 7d29 c4bf 2602 0905 6b59 c1bf
00000160: 8c9b 93c9 96ec af3f af35 b6b2 b4a4 a1bf
00000170: 0912 d20c 48d2 aabf fc37 32ca 3efa c5bf
00000180: 05c3 1d19 9e40 b8bf c1e1 c12d 6216 97bf
00000190: 76cd d007 3e43 ae3f 7c34 5323 a4e9 d83f
000001a0: e44b 9f2d ccc7 d13f 67e7 290d f7ff c33f
000001b0: e8cd 3096 106b b7bf 8730 f2a5 8894 bf3f
000001c0: a114 c797 6f44 b33f d28f 3509 6fc8 d53f
000001d0: 6b51 b70f 3e86 aebf b6a2 a3ef 6332 c2bf
000001e0: 44f7 a054 5f00 e4bf d02a f8cb 6ebe bebf
000001f0: d8da b642 ef93 d03f f10b 1b4c 5964 d6bf
00000200: bcc6 e632 7561 c4bf 0499 ea9e 0d0e bc3f
00000210: 28aa f222 4a44 93bf d386 f243 e116 cbbf
00000220: 061c 505b 66a6 9d3f ebd8 d234 5f39 c3bf
00000230: 2729 9c19 3ca2 adbf f1e1 aac4 d701 cbbf
00000240: 9200 0901 1e6f c03f 7508 c471 01bb b93f
00000250: e747 8439 e427 9dbf 2eea 24f7 e024 c83f
00000260: fee0 a76a bb50 c0bf 38b0 6153 3918 cd3f
00000270: c411 128e e423 bbbf b82e f44f ca1b c53f
00000280: 5723 3435 d9be c03f 926f 11be 9b86 ccbf
00000290: 9dfa a423 a969 c13f f79b 41d4 2632 c73f
000002a0: 277b a9cd 8361 b7bf d0f7 6c6c 70f4 c13f
000002b0: 072b c4e2 b341 823f e64a a9b1 0e33 b53f
000002c0: e117 441f 9106 9d3f 37cd 2889 3959 b83f
000002d0: c70f d801 2bbd c1bf 8fd6 a157 3e31 c23f
000002e0: 3e7e 19a4 9fa0 b03f e8f7 586c 7be5 c53f
000002f0: 0be0 277e b2dd b53f b0dc 09bd 6953 c4bf
00000300: 02a1 64fc c046 a8bf d1cb fd87 f667 7ebf
00000310: 7926 683c b698 b33f 3769 85ee cbb7 b03f
00000320: 0171 0393 895b c7bf a9de aec1 cbff c63f
00000330: dd6e 2ec4 71bb b7bf d1a0 e3fb 9c08 c73f
00000340: 0a13 3940 9d63 b23f dd68 ea00 13ef a03f
00000350: 50e2 730f 5d94 b73f a791 d5d5 c78a c8bf
00000360: a5a5 b828 b25f c4bf f883 286e d483 89bf
00000370: 9162 1d2e 0780 c33f eba6 1a9d ac57 d03f
00000380: d869 6285 c8a2 bbbf 4a4e 584d 1901 853f
00000390: 9783 b119 8bde d53f 01a3 df7c 4731 bbbf
000003a0: 2c45 af91 7bb6 b63f 1d13 4a83 7605 b4bf
000003b0: f267 fb1b 5b2c a0bf 163b 7623 9c2e 7cbf
000003c0: 6407 4ab7 e3e7 c6bf 4da5 e77d e61e c73f
000003d0: 0e94 f7d1 3e75 d8bf 1ea8 e2cd 2710 b53f
000003e0: dacc 9ec9 1a83 c43f f65b b0c3 5ae7 be3f
000003f0: 1ee9 ba77 05f5 b1bf 230c 3ed9 5009 cdbf
00000400: 7699 08e1 e29a a83f 7a74 ec2b 5541 913f
00000410: 5f56 8db2 e5d6 aabf 0b82 ce92 e929 b7bf
00000420: abfe 974d 6a4f 62bf 94b2 7f97 e622 cbbf
00000430: 3338 98d5 f86d bcbf eb6c dff9 0cba b33f
00000440: 96ac 1e18 5cb3 c2bf b887 2a12 a713 d6bf
00000450: ad43 fa60 369b b7bf 8632 cd7b 901f b3bf
00000460: d23c ea06 3507 c13f b543 100b f9bb c53f
00000470: 55b5 9e19 a738 b9bf 6d96 2e40 6ae3 d03f
00000480: 3f00 ea8f 5b0e a8bf 8f41 c079 166c be3f
00000490: cc51 1642 c258 bfbf 4fe6 30e4 ae7c 633f
000004a0: ea75 9e4b 7970 98bf e916 8823 5da1 c23f
000004b0: b2d5 84ce 3c98 bcbf 79d4 b26a 6c0f c1bf
000004c0: d870 f89f a68b 983f c7a2 0a67 c78b c0bf
000004d0: 7735 9783 1d6e bcbf a365 02fe 7043 d3bf
000004e0: 1220 cf4a bf50 c53f 76cf 3df0 181c c53f
000004f0: 68e9 db82 5d61 b63f a06a e6b5 c0b3 86bf
00000500: b5f2 80ba 043c c63f 26ee 284f b07e 7cbf
00000510: 3f3f bdd8 9304 b53f ebd9 f713 dd37 ccbf
00000520: 3aac d15c f0f2 c43f 262c 42d7 7d55 b1bf
00000530: 6b87 1097 a387 c83f d35d 0abb 672f a23f
00000540: 3266 89fe 32c4 d23f 1cb6 d510 4106 b83f
00000550: 272e 6405 99bc b7bf ecab c0c4 727c 8fbf
00000560: bfa4 b4a0 7473 713f 0771 ca9e fa1e cdbf
00000570: 06a1 eb9b d378 9d3f 8bbe 94b8 28c5 9b3f
00000580: 5b47 9915 c473 b93f 3ce4 e3ce 979f cc3f
00000590: 56be c8ba e4f0 a2bf 818d a579 5bf2 b53f
000005a0: 7265 b8a0 5306 b53f e0df 89ff f49d b03f
000005b0: ec57 2e52 f00f b53f d7eb deb0 47d0 dabf
000005c0: 61d6 749e 3eae cd3f 9c1b 62ad 6a9d 9e3f
000005d0: e69b ec6f fb50 c5bf 3fa6 16fe 460a c83f
000005e0: 7a04 d0d1 9d80 d7bf ba2a a128 a391 b03f
000005f0: 855f e0e8 a797 bf3f 50d9 03fd aa30 d03f
00000600: a6c7 0162 08e1 c4bf c1de ce9b bca6 ce3f
00000610: cc96 63c1 3423 b03f 0f66 a1a9 e1a9 b53f
00000620: 2791 0ce3 e9ce a43f e225 72a7 ca1a 9fbf
00000630: 39ff 32fa 6510 7abf b700 a103 d603 b23f
00000640: e5c9 e44e ddb2 b93f dfc1 8cbc 649b b1bf
00000650: 6b1e 435c 7ff5 babf 583e 03e9 f1b3 c4bf
00000660: 27ff 98d2 3479 b7bf b5c7 df22 863c c4bf
00000670: 1776 9906 c248 c93f 80ad 20d1 2cb5 e0bf
00000680: 33cc 4add 91a5 923f bbfd 4ee2 e279 b7bf
00000690: ce03 a781 3574 d0bf b2c4 1b48 5b8a c23f
000006a0: 0cd4 3bd5 e32d c3bf 2a56 5c1e 6eb4 c7bf
000006b0: 7f3e 586b 4f56 a3bf b3a5 0645 08e5 823f
000006c0: c50c 32c8 2b8c d23f c261 e3be 2e99 c4bf
000006d0: 679d 125e 3193 cb3f 98d4 5ab0 1eaa cd3f
000006e0: cc4a f664 2d5a a33f 04f6 d706 cc14 c1bf
000006f0: 9b04 b211 f146 883f 0e0c a30a 1e63 b33f
00000700: a7aa 58a9 1214 ae3f b7cf b48c 4003 d5bf
00000710: be6b aac9 c93f cdbf 468b 5316 3fb3 c0bf
00000720: 8047 69ef 6997 c83f 62b0 044d 8611 dc3f
00000730: c419 ee60 593c c5bf 30b3 5362 abd0 b43f
00000740: 7412 f8bf 4a2f bfbf 2598 19b9 ecf6 cc3f
00000750: c5a9 d876 e112 d43f 9489 fce4 46ff c23f
00000760: 9d66 dcb2 1eb6 d33f 6578 dbbc fec2 a8bf
00000770: a066 22bf 0373 42bf 70b2 5658 1dfe ce3f
00000780: cc8e 1722 6b79 bc3f 44ba 1127 f281 bcbf
00000790: 3671 e96f bbfc d33f 8639 fe37 792f ca3f
000007a0: 170c 856c ee94 b0bf c379 ab95 19bb 903f
000007b0: 6fcb 9535 cf1e b53f b997 1e27 ed6c 92bf
000007c0: 5a01 9a86 a498 c6bf 495b d561 922a 963f
000007d0: 893f c55a 9b81 b93f aea6 e13d 4ddc c9bf
000007e0: d04a 9ae2 b6ce c43f d05d 1376 49a9 c03f
000007f0: e775 f455 f06b b63f 644a 7419 2c68 bdbf

biases_1 f8 [1, 50]
0.009710969277399855 -0.011827053822385128 0.056066643827264326 -0.0053524607248442895 0.05947888777253191 -0.02809490386079347 0.03494958146206782 0.031659279428192515
0.0202679705790619 0.04182534246706273 0.049666508212795654 0.0044506645919634245 0.026822164303638645 0.040842186911087736 0.03674351099080744 0.023413037852859954
0.060637862402412306 0.0001800528449794991 0.008769019999947855 0.026531757734877502 0.06003293147508388 0.06877778506387386 -0.01977293652888416 0.04341735351946215
-0.023361963730225296 -0.004739649059578437 0.018839448113095025 -0.04974794777306774 0.02888134055785488 0.03831580463437512 0.029445771857105275 0.025230711498012436
0.017100381664788642 1.661933695502646e-05 0.048981376759868064 0.03211082744991364 -0.018597210465389508 -0.0023250274636197874 0.028333898436490857 0.025582398983122822
0.06265436303177715 0.05546293033352168 0.03174110394284863 0.008279619273453486 0.009043538252365204 0.0290110141498331 0.08081934388166116 0.029238824420594122
-0.002637511765469692 0.05108061039826674
00000000: 29d0 ab3b 58e3 833f 3b5c 004b c838 88bf
00000010: bee7 4463 c4b4 ac3f f5e3 423c 76ec 75bf
00000020: 482a 924b 0474 ae3f d8c3 1015 e9c4 9cbf
00000030: 6ee5 c65a e9e4 a13f 479d 8423 a535 a03f
00000040: d666 2c7b 20c1 943f 637f 149c 216a a53f
00000050: 8600 f678 e36d a93f 8a1d e32d dc3a 723f
00000060: 4ee0 f7f9 4477 9b3f 5c15 2962 44e9 a43f
00000070: 846a 17a4 0bd0 a23f da1d 835f 96f9 973f
00000080: efdd d507 ed0b af3f 6f95 5629 9299 273f
00000090: cb24 f1f0 7df5 813f a655 1b1f 242b 9b3f
000000a0: 49ab bcea a2bc ae3f 6668 8ac1 6b9b b13f
000000b0: cb23 f34e 5b3f 94bf dbd1 e3a2 cc3a a63f
000000c0: 6c41 c4d8 32ec 97bf 5f58 49db e169 73bf
000000d0: 23ec 14f6 a54a 933f 59f6 7421 9078 a9bf
000000e0: e87a a4f4 1193 9d3f 902d a60f 219e a33f
000000f0: fde7 864c 0827 9e3f 5381 f462 14d6 993f
00000100: d95e ff2f c382 913f 48cd a523 386d f13e
00000110: 76e7 9746 1614 a93f ac60 7d93 d470 a03f
00000120: b892 fbaa 250b 93bf 7dc0 649d ef0b 63bf
00000130: 6d95 9cbc 8f03 9d3f d364 f1bb 4532 9a3f
00000140: 7656 2cc8 1d0a b03f 8179 d81f a365 ac3f
00000150: a937 bfb6 5e40 a03f 59c3 05b0 e7f4 803f
00000160: 61b3 4528 6b85 823f 2243 fd33 10b5 9d3f
00000170: 131d db96 93b0 b43f c3c6 a34a c8f0 9d3f
00000180: 35f5 d058 439b 65bf 7294 3dde 3c27 aa3f

weights_2 f8 [50, 10]
0.012997234017944037 -0.10112528681692065 -0.09469723379378381 0.017296734148278398 0.13754699860183378 -0.07707916909556656 -0.14032986507050044 -0.05503288209948444
0.4058765724410366 -0.05302545917918335 0.20656997063260962 0.07064493845285083 -0.14307770909715578 -0.4977449413698111 0.10019940417996315 -0.32570216589044204
0.3563779241953014 -0.2299986887164421 0.20769272685585363 0.2755552573808723 -0.4659160353758841 0.2587923071469832 -0.19846136948101564 0.3300518216234974
0.016970932468594012 0.0605175601539791 0.5822479157145083 -0.3696368864589116 0.0014022914321366545 -0.25793332848226647 0.5245669422349399 -0.1991296408219397
0.2209947419664452 -0.10640462628527138 -0.1939060725954251 -0.07452616331480696 0.32305265119698673 -0.22646789484904742 -0.1458092159857285 -0.17548182470636325
-0.10061327169973873 0.18312575564527495 0.061083138013989395 -0.10558790876754268 -0.06522632216328773 -0.21012782270751099 -0.39754274615666685 0.6103064214128969
-0.10181191582878985 0.11990667694841958 -0.07346365856821978 -0.0906802590691293 -0.15315199158171788 -0.018131731839705612 -0.03319089420104186 -0.21498174912967605
0.33573489881586943 -0.14246178943756596 0.36977447755371845 0.0019800544661569956 -0.3278232301799312 -0.09475347370307283 0.1445712183424435 -0.23497443905826268
0.34398473448840283 0.2983930806240594 -0.013531974165766581 -0.219087161190924 0.19619153453527746 -0.06572782046559392 -0.33149738732646433 0.3650169291921437
0.7361863414043991 0.38329105619518256 -0.17999925273569445 -0.3807677068590589 -0.2088177214859639 0.40236765088165743 -0.10828545749951558 -0.6259333745767182
-0.16787805753312868 0.4211825204071734 0.16595358021551607 -0.3365973837574771 -0.20078611757635892 -0.04195282565714767 0.05347453992635693 0.21946989110792342
0.08175017348006301 -0.2802539556330683 -0.20385038371724645 0.47446989435813597 0.20436231522230713 -0.5203660958842327 -0.01777921193427517 -0.1710910436292846
0.09262410039977452 0.23858905781040424 0.0234838636059641 -0.1398226348124158 -0.14906533875042902 0.049952771705732785 0.1292399305399795 -0.09917663318378282
0.03177925217242824 0.27950521415658647 -0.0458101676710073 0.3308876299452386 -0.20131612247883388 -0.2999709542896538 0.004192247945599507 -0.057564507671306234
0.0008715049978092423 0.29646339656371334 -0.2444899347826022 0.17434149879254993 -0.35029663325359506 0.19705093166126136 0.12029859188548932 -0.19284777283071608
-0.17863992354038477 0.08247255210210533 0.3958154610204191 -0.07771503217208152 -0.09939739620074678 0.030335828550912113 0.04258967608591281 0.09135323872334736
-0.020266182839373068 -0.20585584794101766 0.06422208803646119 -0.04889094204001291 0.16519134889268472 -0.1830849016076181 0.29538733665953537 -0.0063355196380988545
-0.29994442107290575 0.5183683432490559 -0.24505430083444063 -0.28266793380459004 -0.05310847331628444 -0.10720856925439884 0.1487297228705996 -0.09345708601177209
0.24138706168447252 0.33730368736593114 -0.011460598309874013 -0.13399128855049647 -0.2600190899542966 -0.02917861710140045 -0.12198141624526268 0.12358363933374582
0.24499226233392768 -0.0686875341420705 -0.08069297548588264 0.03242190315393424 0.07345479530642847 -0.06509596260032781 -0.06901472807258834 -0.07389740926744791
-0.3593562196461266 0.1284805020569436 -0.3460172005053002 0.07286130566380383 0.008742331269592073 0.3881725309909674 -0.1544401308878308 0.2963888040567774
0.00903921798515422 -0.07668067403863146 -0.007696926856033633 -0.008083744092761282 0.006499717145056741 0.016519780713686982 -0.000765068400522313 0.002585152185961518
-0.0017101048569051268 0.0009025244174388761 -0.0024911285235677317 0.006050954987901699 -0.2066566466991712 0.16745089275749397 -0.06134053620667505 0.22377465866761612
0.06093986992821682 0.3999870641312618 -0.27664200200708233 -0.49037979639541485 0.21722350000236715 -0.07851696350776598 -0.35186047815188426 0.2921796086518477
-0.3759910442834138 -0.35788748875389986 0.0662754248567857 0.35749220661264225 0.04122177751102038 -0.15413038201210452 0.25449174922362394 0.23203045026829688
0.046983686052454086 -0.05811818745689884 -0.12320366262898977 -0.039241045214033765 0.14945292213940115 -0.061919870243427245 0.08175256350825408 0.4391197613266762
-0.2013853313369994 -0.23536533913248006 -0.0010598487536659395 0.35864830198555925 0.015328284602349071 -0.09797592963337107 -0.23533058605463467 -0.20985401694621167
0.015432446219112435 0.2647650815237627 -0.1949735719376489 0.13220015057558465 0.4425403272557326 -0.01930500392386527 0.1635374746266486 0.11433588891767206
-0.3681344388021289 -0.36126663316649676 -0.126130381058237 -0.008700097796259663 0.2906077539270234 -0.07462179539284206 0.3380776750706975 -0.07371879263801541
-0.4269414636764796 -0.20241323511397724 0.5833468240122677 0.3084095480972597 0.46410632665839213 -0.19446154811668942 -0.34081847828421247 -0.49446927569427324
-0.2507459705236496 -0.09602089961637458 -0.46014998065270435 0.020698976100412297 0.467677094223685 -0.18849347777186112 -0.3668973166846693 -0.10253363738021355
0.30834371136442484 0.646129485520421 -0.12217992312071181 -0.4130557266659685 0.5644203869002729 0.018577619282028023 0.350042461440185 -0.2949748119540539
00000000: f33d 5d38 4b9e 8a3f 2663 adc7 58e3 b9bf
00000010: d87c 2af2 133e b8bf 4854 fa2d 3cb6 913f
00000020: e633 54da 239b c13f 50e3 77de 75bb b3bf
00000030: 4ea0 903a 54f6 c1bf 52d1 a419 452d acbf
00000040: 6a32 36bb e1f9 d93f f358 0f2a 2726 abbf
00000050: 58f3 1982 e270 ca3f ea6d 4864 c915 b23f
00000060: f8ef add0 5e50 c2bf 9bb2 3b99 0ddb dfbf
00000070: bc18 080c aba6 b93f 9917 afe5 4dd8 d4bf
00000080: 19da 5b5a e5ce d63f fb7a 14d7 9870 cdbf
00000090: 0542 bbde ac95 ca3f f644 ac84 b2a2 d13f
000000a0: 0ac5 a77d 91d1 ddbf 82c5 e99b 0d90 d03f
000000b0: e35c b8a1 2e67 c9bf e1eb f6ac 911f d53f
000000c0: 76ae bdff d360 913f fbdd 635b 28fc ae3f
000000d0: 270e 8561 c6a1 e23f 621f af78 21a8 d7bf
000000e0: e88d caf5 a2f9 563f fc4d 98ca fa81 d0bf
000000f0: f8c6 ae9c 40c9 e03f 634a 7f7f 147d c9bf
00000100: 4cbb aa42 8e49 cc3f d1d0 0966 553d bbbf
00000110: 0786 2508 ead1 c8bf d629 228a 2514 b3bf
00000120: e1bc f106 e5ac d43f 753d fc64 e6fc ccbf
00000130: f89a 0e5b e0a9 c2bf 82ff 133d 3076 c6bf
00000140: dd72 7e97 cac1 b9bf 869f c62d aa70 c73f
00000150: e7da 3600 4a46 af3f f276 0227 cf07 bbbf
00000160: 2999 8718 acb2 b0bf c114 41ef 77e5 cabf
00000170: 8250 6021 5771 d9bf df3a 1055 a187 e33f
00000180: e4e7 d380 5810 babf 8ec4 1038 34b2 be3f
00000190: 3fb9 feaa 83ce b2bf 6c3f 184b d236 b7bf
000001a0: 5093 9405 7c9a c3bf fde3 15ed 1f91 92bf
000001b0: 36a8 3c9a 65fe a0bf d4d9 df9e 8584 cbbf
000001c0: d38f a23a ae7c d53f a130 481b 303c c2bf
000001d0: f946 ff91 62aa d73f dd6b a5a5 7938 603f
000001e0: 0a7b 1f49 0efb d4bf 2eb2 bc7e c341 b8bf
000001f0: 39a1 5c47 4f81 c23f f959 9375 a413 cebf
00000200: 18dc 3c8c d803 d63f 8183 a84a df18 d33f
00000210: c732 f0d3 a6b6 8bbf 89ed 2450 0c0b ccbf
00000220: 8b60 4ae0 cd1c c93f 3a4b 56d7 89d3 b0bf
00000230: f7b3 51d1 4037 d5bf 7476 57f7 6f5c d73f
00000240: 4900 83a8 d68e e73f 7049 cd35 d787 d83f
00000250: 8af1 e62b 370a c7bf e048 1584 7f5e d8bf
00000260: f8c0 4d02 8aba cabf f952 603f 64c0 d93f
00000270: e1c2 9782 98b8 bbbf 8205 a96d a507 e4bf
00000280: c80f 6937 077d c5bf 22ec b287 a7f4 da3f
00000290: 2f02 d787 f73d c53f e714 cac0 cf8a d5bf
000002a0: 559a 3d08 5cb3 c9bf b42f 583c d77a a5bf
000002b0: b900 4ed0 0361 ab3f 7af2 61e2 9617 cc3f
000002c0: d308 8a51 94ed b43f c831 8149 aeef d1bf
000002d0: 1edb abf5 c417 cabf ef1a cdf9 b65d de3f
000002e0: 5213 355a 8b28 ca3f aca3 78cc d6a6 e0bf
000002f0: afb7 39b7 b634 92bf 5b5d 83b2 4fe6 c5bf
00000300: ffd7 098a 36b6 b73f 7254 3d14 168a ce3f
00000310: de73 af68 270c 983f a643 e145 b5e5 c1bf
00000320: 873b 73b1 9214 c3bf b42f a4e1 6893 a93f
00000330: c4d5 801d ef8a c03f 8b3e 0dcc a363 b9bf
00000340: 9b38 8bc1 5e45 a03f 064c 77d6 69e3 d13f
00000350: 0d48 f127 6e74 a7bf 0d02 514f 432d d53f
00000360: ab20 1a09 bac4 c9bf 6422 9b5f b932 d3bf
00000370: ab4e 2bfd e32b 713f 9a9a b75b 1879 adbf
00000380: d4c9 60bb b68e 4c3f 4cf1 2c9c 41f9 d23f
00000390: 61d5 0b39 724b cfbf ed26 d37d d250 c63f
000003a0: 3847 ee91 426b d6bf 4ed3 9005 f738 c93f
000003b0: d12c e775 e3cb be3f d809 b55e 3caf c8bf
000003c0: 96d5 ae4a acdd c6bf 76a0 18d2 eb1c b53f
000003d0: 025e 155f 0a55 d93f 8730 96e1 21e5 b3bf
000003e0: 0c61 fd95 1b72 b9bf c3c9 17fe 5a10 9f3f
000003f0: 6259 df63 50ce a53f 3251 b304 ed62 b73f
00000400: b919 0a82 a8c0 94bf 256b 4c03 7c59 cabf
00000410: 9d24 ccd7 db70 b03f 55d5 43ca 3b08 a9bf
00000420: 24c1 8978 fd24 c53f 86e6 6578 536f c7bf
00000430: 5bbc a649 a0e7 d23f 767c 611a 46f3 79bf
00000440: d60c c815 4a32 d3bf 2b2a 3135 7996 e03f
00000450: 22fe e977 f05d cfbf 0f64 d43e 3b17 d2bf
00000460: 515f 11a8 0831 abbf aa70 cc52 0572 bbbf
00000470: 2c10 d657 9309 c33f 5301 00b8 cdec b7bf
00000480: 4b61 ce6f c5e5 ce3f f7a3 8334 6296 d53f
00000490: c5cf 7777 a778 87bf e4fa 2265 a026 c1bf
000004a0: e71e ec1b 27a4 d0bf 5da7 c5d8 ffe0 9dbf
000004b0: 2640 7e91 2c3a bfbf 3754 4269 2da3 bf3f
000004c0: 9ca6 3f0d e85b cf3f af77 c898 8195 b1bf
000004d0: 5a92 ba7a 4ba8 b4bf 92c1 708b 9a99 a03f
000004e0: f552 93f7 eecd b23f 0155 7806 21aa b0bf
000004f0: 0f9c 0300 f3aa b1bf b714 10cc f0ea b2bf
00000500: b7a2 bf3a b1ff d6bf cc0d 4191 0c72 c03f
00000510: f184 0154 2525 d6bf 2c4b f8dc 09a7 b23f
00000520: 264a 26d7 7fe7 813f bcf3 7399 d1d7 d83f
00000530: 6b35 adb7 b1c4 c3bf 27c3 14bf 08f8 d23f
00000540: 9e6e 054d 2783 823f 322d 3b3b 58a1 b3bf
00000550: 089b 0512 d086 7fbf 14a7 0fc4 358e 80bf
00000560: 2aeb 2389 729f 7a3f c008 9cb7 8fea 903f
00000570: d789 35e1 db11 49bf a220 0103 752d 653f
00000580: 9e89 b81b b304 5cbf f9b3 a96d ec92 4d3f
00000590: 4d4f 3e71 4668 64bf bc8d 85dc e2c8 783f
000005a0: bd77 8999 b973 cabf 162b 0ae6 076f c53f
000005b0: 0682 dad9 0668 afbf 1f53 53e4 a5a4 cc3f
000005c0: 7876 bab8 8233 af3f a513 d157 6399 d93f
000005d0: 3081 d4a7 80b4 d1bf e8cb 08f1 6162 dfbf
000005e0: bd66 37ca facd cb3f db73 720e b019 b4bf
000005f0: 7ab4 9acf e184 d6bf dbef ed19 12b3 d23f
00000600: 4850 b2bd 3c10 d8bf c81d f6ec a0e7 d6bf
00000610: 96d4 491e 6df7 b03f a079 fefd 26e1 d63f
00000620: 9cec 9554 051b a53f d1ee 075b 8bba c3bf
00000630: 6a1b 01c3 9749 d03f f20b ca7d 2cb3 cd3f
00000640: 93e6 14e6 3e0e a83f 4840 dcc4 aac1 adbf
00000650: 6a2a bd75 468a bfbf e8d3 b5fb 6617 a4bf
00000660: b6af 70fa 4521 c33f 0d0f 5613 f6b3 afbf
00000670: 3ed2 a16a bced b43f c039 7bc5 891a dc3f
00000680: d346 fe99 fec6 c9bf 3dcd 1791 7320 cebf
00000690: 0abc 15ef 535d 51bf 67cf f201 18f4 d63f
000006a0: 1824 9188 6f64 8f3f fe0d 9255 f314 b9bf
000006b0: a934 6d09 501f cebf 45ee db15 7fdc cabf
000006c0: fe88 77de 0b9b 8f3f 031c 913d e9f1 d03f
000006d0: 913b 87dd e4f4 c8bf f4cb 9f3d efeb c03f
000006e0: 5b5e 2eaa 9452 dc3f 6634 02e2 b0c4 93bf
000006f0: b58f 98c4 cbee c43f e515 a9e7 1d45 bd3f
00000700: eaee cbbf 838f d7bf 3283 a515 fe1e d7bf
00000710: b7ac d652 0a25 c0bf f234 0e5c 5bd1 81bf
00000720: 3e28 c543 5199 d23f 8ef3 c7fa 691a b3bf
00000730: 54ed 7b8b 10a3 d53f 111b 7b1b 3cdf b2bf
00000740: 9fff f249 0253 dbbf a4c9 8b48 ade8 c9bf
00000750: 0676 6bf5 c6aa e23f 0785 b666 fbbc d33f
00000760: c253 b705 ebb3 dd3f a2cf beb2 1de4 c8bf
00000770: 7b9a 864e f8cf d5bf 20f5 fe75 62a5 dfbf
00000780: c72e c0d3 380c d0bf 46b7 955f d394 b8bf
00000790: 3123 8ae7 1873 ddbf e8d7 a5c5 1c32 953f
000007a0: c0db 31e8 6bee dd3f 950c 45e5 8d20 c8bf
000007b0: dea6 09e2 3e7b d7bf 75b6 49fb a43f babf
000007c0: ae32 0f43 e7bb d33f 1554 29be 17ad e43f
000007d0: 1900 08f6 2e47 bfbf a52c 5d49 816f dabf
000007e0: b8d5 dd57 bb0f e23f 16f1 03ed 0206 933f
000007f0: 3234 067f 1867 d63f 5d21 9f08 dee0 d2bf

biases_2 f8 [1, 10]
-0.09498569226522258 0.13569308038981315 -0.05698745508100952 -0.04795104439168625 -0.006151454889110676 0.1960931327513678 -0.05241370029937027 0.12842014321179998
-0.2093991641439321 0.007682154717350107
00000000: 10f7 dd79 fb50 b8bf eaab 480f 645e c13f
00000010: 6bdd b5af 752d adbf 0a53 f10e 0a8d a8bf
00000020: 4211 2599 4432 79bf 6a93 116c 9419 c93f
00000030: 1ad9 4bf1 f7d5 aabf 4104 9f3d 1270 c03f
00000040: 0f6a e780 97cd cabf 719c 61b4 5277 7f3f
